base_model.npz (npz, 989696 bytes, 12 tensors)

W_i f8 [128, 217]
00000000: 059e 8b1c 834e e93f 15bf 0cfc 9138 c93f
00000010: a33d 2b21 e558 e03f c3a1 0795 0924 ddbf
00000020: d2a4 8610 db9a d7bf 301a ad46 a5af a5bf
00000030: 8277 027f 8e3c ebbf 26da 24c4 76ca debf
00000040: 95b6 844d 400f d0bf 7e01 aba5 e208 d63f
00000050: 9e85 53b8 635f f23f 761c 962c bc1b d93f
00000060: a2fc ba6f f261 ebbf 801f 530b adaa d1bf
00000070: be1a aa99 55b8 da3f 45a1 32df 1ed8 e2bf
00000080: 265d 224e b0d7 d63f 286c ebd7 06eb a4bf
00000090: a23f adce eeca d9bf f29c 193b cf65 dabf
000000a0: f7b9 8e00 c88c e2bf ddb0 0b3d 49d0 dd3f
000000b0: 8637 94ef 82e1 cbbf 9e73 621f 62fd f83f
000000c0: 5471 3a03 f427 ee3f f5b2 6a6d 59f5 ea3f
000000d0: 057c af29 58fc f23f cb3f b48b b71e d5bf
000000e0: b856 3d2d dbad f13f fd18 51f7 57dc bf3f
000000f0: e349 303b 4384 da3f 3c16 b3cb 3577 be3f
00000100: 8339 ade9 906e e5bf 0b5d 0ee9 806c 89bf
00000110: 4145 3779 bbe5 9c3f 7354 7f04 d463 fbbf
00000120: 507c 0f4a de2b b93f af34 76d4 8fea fbbf
00000130: 421a d8ff 4fab c7bf 7223 cd73 d72b df3f
00000140: 1dfc 8fa1 7ab5 ec3f 83ba b9ed c994 de3f
00000150: f3bc 11f6 174f b63f a8fd 4ab1 813f e4bf
00000160: db96 048a 1aa1 b0bf d101 a5f2 bc4d ce3f
00000170: 2446 a35d 8e70 e6bf 00eb 2f82 dfea f53f
00000180: 26ca 0d8c 62f4 b33f c034 59b7 ac2d d63f
00000190: b976 a873 656e cf3f f5ae 9c51 9aa9 02c0
000001a0: 4c8e df98 9924 eebf a634 ca84 be49 f83f
000001b0: 134a ca43 f1e9 a73f 5702 dfc6 3ab2 e1bf
000001c0: 5f6f b567 6a5d e03f df04 6d56 9e92 f63f
000001d0: 322d f8f4 64df d4bf 8cf3 c765 6c1c bdbf
000001e0: d2bf 81b4 1f2f c4bf cb9a e979 b88c d8bf
000001f0: f742 fc1d fc79 f2bf f39f 1e5d 112b e1bf
00000200: 9e86 9752 a69d df3f b442 0a68 dbfe c9bf
00000210: 7666 c7bf 1a4a ecbf 0fc3 8995 2cc9 f4bf
00000220: ffb4 0538 d7eb f7bf 6aa6 4cf6 e6bd f13f
00000230: c07e 9c1c 2559 e63f 28be 3ce0 3438 e33f
00000240: 5547 9859 827d eebf c7e8 75f6 20a9 e23f
00000250: 6567 dacd 4ebe c83f 2c4c 99d7 beda e6bf
00000260: 1400 cc15 9cfb d83f 2d35 cb44 f94c e63f
00000270: 5321 7660 a888 d2bf 2781 5c34 a4de b8bf
00000280: a04e 64e8 c705 a7bf c385 cc13 29f1 cdbf
00000290: fdd7 26eb 21b6 d0bf dc08 3c33 75f5 e33f
000002a0: b0ee b6e1 b880 d5bf a8b7 a35c 8137 df3f
000002b0: 3f7d 91c5 1682 d7bf 4451 dac3 0945 f0bf
000002c0: c976 8044 5b34 d33f 9923 e497 3822 e03f
000002d0: e6f6 e01b 171e df3f 385f d50f 94cd eabf
000002e0: 2aee e617 fcdb f1bf 2580 92ef b230 f23f
000002f0: 2138 ec3d acd9 f0bf f00b 0c2e 8708 cb3f
00000300: 465f 648e 0115 d8bf e8fa 707e 083e e5bf
00000310: f3d3 0fec 1446 f7bf bde2 be28 ee9c f6bf
00000320: 53fa 02ba 4f58 ccbf f81b 07f0 d013 e13f
00000330: 7a93 cbf7 b988 aebf f76c b682 4779 da3f
00000340: 8cc8 8fa5 2e6c 01c0 bc94 0118 384a d8bf
00000350: 2135 fa38 95f3 f1bf f53f 9474 62a7 c53f
00000360: 7df9 b2a4 05ea f63f ccb3 fab7 bc0f eebf
00000370: 86dc 4424 afd2 e13f cccf a76b a3c5 ddbf
00000380: ec2b 19ab 7ddc f43f 25dc 5647 801a af3f
00000390: 9beb 5069 b447 e6bf b5c7 861c 555d e9bf
000003a0: 09de b54c b6b0 e1bf 423e 3021 efb9 f23f
000003b0: 0ddd 5727 5a96 bdbf 3ac4 106d 92d3 ea3f
000003c0: 3b2a 5879 8b77 f03f 9280 4954 6181 d63f
000003d0: cc17 2cd5 d83e a73f 7b97 9442 1b66 e63f
000003e0: 7598 dc34 1070 c4bf 0401 ecf6 3012 ae3f
000003f0: 5b66 9485 53bd d83f 92e6 5a57 6213 e2bf
00000400: 59d5 b371 5550 e83f fc79 bea5 2d24 c73f
00000410: 1b51 58a4 8892 ac3f d720 f1a0 1a2b b2bf
00000420: e383 747c e591 943f c7dc 0325 478e b7bf
00000430: 8f2e 1dc2 b30c c03f 271d f3a6 5ed2 d73f
00000440: 96ee 64be 2b0d f63f 3cd7 5077 ca2d f6bf
00000450: 3c96 4765 2328 903f 3e15 9431 51ad 8fbf
00000460: 410c cadb b908 49bf c322 9091 a53e 933f
00000470: 4a3e 6565 bf45 793f 5473 4f02 f4b7 bd3f
00000480: ee70 b693 0845 68bf 35e9 8c9f 27f4 85bf
00000490: da57 4ed9 a600 d03f be29 53c8 ccc5 7ebf
000004a0: bb17 17be 2c88 d13f 2784 3df2 a118 bc3f
000004b0: fbce 7145 65bf c13f 4c0d 5442 ec26 d7bf
000004c0: 0ee0 818b be7b cbbf a488 2192 c459 e6bf
000004d0: f522 2d69 163d dc3f 3c3a db82 74db cd3f
000004e0: d6a2 7ce5 58fe e3bf d3c9 819a d107 773f
000004f0: cd82 8704 2274 c4bf dc1e d63e 6683 dc3f
00000500: 9a84 762e cf2a 78bf cf4b 5fa5 7332 d73f
00000510: 1b8a 36c0 ded8 ca3f 4779 daf6 9575 d93f
00000520: 4ac3 a22d 2ebe d93f b351 8477 1da7 d2bf
00000530: 32a8 f2fc ca8d a33f 0570 4a01 a5ae b33f
00000540: e35e 0cc7 df5d b83f fd80 f7e1 5979 e13f
00000550: 5642 1668 c38b c4bf d0ab fe18 54fd 78bf
00000560: 2f91 99fa faec d2bf 2f36 ec6b 2753 be3f
00000570: de51 73ae 4b2e c23f 5698 572b d22c b83f
00000580: 0048 95e8 3e0f 85bf de55 6ed4 2626 c53f
00000590: 0066 1f12 d0ac f13f 696e 993d e2b4 e2bf
000005a0: bade 3e34 b534 c2bf 7299 5936 6435 dc3f
000005b0: d3c3 c32d 4911 f4bf a70a 81a6 1900 dfbf
000005c0: 37f4 07f4 c797 f33f c99b 4e57 a46b 00c0
000005d0: ba8d 3b45 981c 06c0 71ff c699 8268 c63f
000005e0: 5700 b59c 058d cebf bf07 3923 f4a0 d83f
000005f0: c5b3 135c ab70 ac3f f65f 09f2 caa4 ffbf
00000600: de66 91b5 b10c e2bf f929 f2b8 1ffa 9b3f
00000610: 2a39 2a10 6cf6 cebf 2ed9 fb14 50e8 cd3f
00000620: b871 a0a0 e565 d43f 5789 33b1 1879 ecbf
00000630: 0f78 ae0e c401 ec3f 0c06 ba81 da0e aebf
00000640: a592 81fc e682 f03f e410 801e e043 bc3f
00000650: a05a ddc7 a208 d83f 3aea 256b 3894 ddbf
00000660: 43ae 79f2 5d47 813f 614a afe3 39d3 7abf
00000670: 09b6 7a06 d65a 66bf d5e8 6b08 8de1 803f
00000680: 65c1 81ed 6b0b 5abf 11c7 5b4d aaa9 87bf
00000690: 073b 5366 e53b 72bf fea4 8353 8bc2 7a3f
000006a0: b811 2db0 22ac 7f3f d52b 8583 a8fc d33f
000006b0: e59d d750 5dbd e13f fa83 1b0e 0373 e4bf
000006c0: 2423 1836 71b9 9abf 9884 067b 94ab d8bf
000006d0: cef4 e880 66a6 bbbf 56a0 647e c5e1 e9bf
000006e0: 5939 d29a ddec d2bf d3be 71eb f423 bd3f
000006f0: 1832 0ee3 1d41 f53f db41 7e98 0cd1 d13f
00000700: 8b82 a783 977b e13f ea7c 646f 8772 e0bf
00000710: 7c02 fff8 5a55 c9bf 1c1e c930 64bd c53f
00000720: 54ea bbff dd5a d93f 4f1e 20ea b8c4 eabf
00000730: 64ad 74af 33c1 ddbf 71a5 5452 f2dc d3bf
00000740: 1db1 59df e2a7 cc3f 8898 ffdb 329b bcbf
00000750: 23b3 3610 b1bc e6bf 69dd 2e44 bfaa c13f
00000760: 5ca1 2fd8 a451 c1bf 0c39 47f5 0137 ec3f
00000770: 8282 8dab 4271 d73f e7b8 efdd a961 e1bf
00000780: 5d3a b1f9 8f7f d53f d384 e337 bb6b c43f
00000790: fcc4 99fb 5668 c7bf 1f2f a34d 1f4b de3f
000007a0: 60b3 ca09 33dd b43f ab8b cd1e 6fcd e5bf
000007b0: de0b 4976 f756 d4bf 160d 70bc c8e3 c4bf
000007c0: ca0e 7721 03bf c7bf 566a 6411 9ab7 e8bf
000007d0: 74ca dd57 e941 ddbf 5b11 7923 9aa3 e1bf
000007e0: 1269 10ee 45b9 e73f eeb9 69a4 a97d b6bf
000007f0: a3cd 91cb 70d1 eb3f f613 db9f 7349 d3bf
0.7908340032126381 0.19703888709181486 0.5108514449911364 -0.45532455018704016 -0.36882664312231583 -0.04235569465395306 -0.8511421662003473 -0.4811074176281259
-0.2509308583274586 0.34429231813921735 1.1482884598011434 0.39231781343591565 -0.8557064230189051 -0.2760422335236328 0.417500877440414 -0.5888819083529958
0.3569145930318477 -0.04085561166513002 -0.40301103766705115 -0.4124639584683357 -0.579685212220112 0.4658377739094826 -0.21781956384841922 1.5618611551246668
0.9423770964672635 0.8424498688742391 1.1866075161303808 -0.3299998153970562 1.1049453513309526 0.12445592678077229 0.4143226697935047 0.1190065023721098
-0.6697468341824763 -0.012413985359485588 0.028220109246665407 -1.711872117584133 0.09832562740437933 -1.74476607315891 -0.18491554252996606 0.4870508795616423
0.8971532016292972 0.47783134665852617 0.08714437253523837 -0.6327522719147298 -0.06495824689462941 0.23674737785223823 -0.7012397602904383 1.3698420606075956
0.0779477683952697 0.34653776078341636 0.24555652758947646 -2.3328138709965693 -0.9419677720838506 1.5180039584259162 0.046706714177293794 -0.5530065426065204
0.5114032769738336 1.4107955337533935 -0.32613490984722937 -0.11371495709313545 -0.1576881057148954 -0.383588904433435 -1.1547814532570422 -0.5365073031180131
0.4939971739350798 -0.20309012012559935 -0.8840459581071645 -1.2991147843678765 -1.495078295552332 1.108862840754592 0.6983819540800695 0.600611150706702
-0.9528209447764576 0.5831456006701722 0.1933077340261732 -0.7142023287691521 0.3903570378170127 0.6968962043407935 -0.2895909254080113 -0.09714723852494399
-0.044965979688780466 -0.2339221331285853 -0.26111648525272796 0.6237131119417216 -0.3359815792316381 0.4877627758677314 -0.3673149995210742 -1.0168550158023928
0.30007058801298264 0.504177376425207 0.48621156427894474 -0.8375950154540766 -1.1162072118448898 1.1368893965045654 -1.0531427782875726 0.21119775532142127
-0.3762821093127865 -0.6638224095875929 -1.4546097966351652 -1.413313063776669 -0.2214450510272906 0.5336689651529687 -0.0596368899330519 0.41365230336096154
-2.177823346567555 -0.3795299753604231 -1.1219684816054 0.16917067234362518 1.4321342881736137 -0.939421042761404 0.5569682796839437 -0.46518788827165447
1.3038307841804864 0.0607490622600653 -0.6962530190424902 -0.7926431233556658 -0.5528213022470833 1.1703940674232318 -0.11557544193771126 0.8383266573129113
1.0291857471480756 0.35164674025691867 0.045401359579087947 0.6999641704939984 -0.1596699007142807 0.05873253835852846 0.3865555576790933 -0.5648662286905213
0.7598063679458092 0.18079157441111693 0.055805463849681845 -0.07097021512265954 0.020087800713671455 -0.09201473859490071 0.12538763979170084 0.37221494964292606
1.3782155453945157 -1.3861794148228475 0.015778115326517503 -0.015467295003427691 -0.000763979674573874 0.01879366589494925 0.006170032158777492 0.11608815246968379
-0.0029626052398282676 -0.010719594532578295 0.25003977986614034 -0.0075128554646632355 0.2739364487027804 0.10975086368627328 0.13865342989776494 -0.3617506644952371
-0.21471387683755022 -0.6984579900856898 0.4412284876930664 0.2332597388217027 -0.6247982484975079 0.0056226909292597825 -0.15979409428748284 0.445519982684784
-0.0059002011325059115 0.3624543299640068 0.20974335084345416 0.3978018675496923 0.4022326894437823 -0.29144989654130454 0.0381911691450373 0.07688361436379416
0.09518240556314654 0.5460633672155663 -0.1605152376401004 -0.006100967890158196 -0.295714134909093 0.11845632920104586 0.14203783052529578 0.09443391378553775
-0.010282985184549176 0.1652267968426448 1.1046906192699453 -0.5845805361854676 -0.14223351527265554 0.4407587557565399 -1.2542201793369159 -0.48438111553347557
1.224555924650543 -2.0525595494141027 -2.763962307815487 0.17506439694079348 -0.23867864753447307 0.38482383193706576 0.05554709910379744 -1.9777326063685883
-0.5640495821237115 0.027321334517674576 -0.2418952063494058 0.2336521246394993 0.31871929823116885 -0.8897822819674656 0.8752155577419688 -0.05870707353188828
1.0319585670014615 0.11041069740901183 0.375527091198288 -0.46217165435487895 0.008436902963885667 -0.006549097185557602 -0.002728860872443621 0.008242704219345512
-0.0015896371824305141 -0.01155407951907564 -0.00445165261517278 0.006533188098026386 0.007732520580990991 0.3122960361840204 0.5543657854986433 -0.6390395427262086
-0.0260980309740574 -0.38547241224484585 -0.10800781867233697 -0.8088099926581076 -0.29570713156944844 0.1138299059691648 1.3283976430276478 0.27838435069955175
0.5463368960736984 -0.513980596126115 -0.19791733892454377 0.16984226591215268 0.39617109273937 -0.8365139553797664 -0.4649171079097043 -0.310360508347535
0.22387348085192907 -0.11174314375930028 -0.7105336491273174 0.13802328900576846 -0.13530407482108842 0.8817148008909341 0.3662878680534406 -0.5431718191810234
0.33591079124463424 0.15953769902174617 -0.18287169728458952 0.47333510000020057 0.08150023449952704 -0.6813274003619559 -0.317808022988343 -0.16320141984042696
-0.18551673063313096 -0.7724123325054488 -0.457147918517115 -0.5512209599333276 0.7413663530053631 -0.0878549600981626 0.8693164802520424 -0.30135813342013706

W_f f8 [128, 217]
00000000: 8e6a 15bd 691a cb3f 4d84 a71d 694e ed3f
00000010: b827 2a17 8327 bdbf 7af4 280d a2f8 e4bf
00000020: 4fa0 dbdb c554 dbbf ccbe 05fa 31a3 e63f
00000030: 8e10 8fb1 63e1 e5bf 9fea 7144 8f8a dfbf
00000040: 433d 89f8 6dfb ca3f b51a 23c7 a15d d83f
00000050: c5b3 680d 56a5 e53f 542f c708 42ad e53f
00000060: ecfe 6105 98ed 9fbf 2cab 6240 5546 e9bf
00000070: 54d7 ec5e 0286 e13f 7876 f3d9 3f75 bb3f
00000080: aae6 e28f 8b77 f83f 1b5e 4bf0 3d8f c3bf
00000090: be9c 7d73 9fb0 debf b0ab 9f96 8c41 e4bf
000000a0: e36b b6a6 4e24 da3f de47 0524 1126 f0bf
000000b0: 917c 86e6 825c d9bf 4ba1 60fe cbbe c93f
000000c0: 8452 7061 cd90 fb3f 0b3e 9f0a f44f e23f
000000d0: 5cad 11de 43db e4bf c994 03a1 741f e33f
000000e0: 79e8 7579 d53e f4bf a737 40e2 5a50 c0bf
000000f0: f286 8261 306c e23f 0a0e c53d 9e6b e23f
00000100: 329d a5b5 861b bcbf 6b50 8508 7426 c3bf
00000110: 57bc 458a 78cf c2bf c6b1 58ae 656a e0bf
00000120: 2dca 7b05 191c c4bf 585f 4d62 4348 edbf
00000130: 7337 f1d5 6a72 dbbf 33f3 b3f2 ab1c e03f
00000140: 6017 3d36 3d23 e03f 8e83 a21d 7c85 c63f
00000150: 0938 ae8b 7f4a ce3f 9205 52d9 cdf5 dfbf
00000160: eec8 952d d1a8 ecbf 5e4a 6502 ea0b e2bf
00000170: b041 b2d5 c99c fb3f 4790 5007 1a96 ed3f
00000180: 5fba 72d9 9e49 ebbf 87c0 a0fb 217b cebf
00000190: 187d 4547 c86f cebf 93c1 4880 1707 d33f
000001a0: d075 b7d9 b1a3 c23f c505 a184 bbed e7bf
000001b0: 908f 8823 b7e8 c93f 2dfa b6a2 51be a5bf
000001c0: 4f5a aa99 1e5e cbbf 1589 3bf6 073f e7bf
000001d0: 1488 b8f7 1ab5 de3f 6087 53c8 ff54 e2bf
000001e0: 7d89 b664 3784 c13f f8cc a4d7 8a1f e3bf
000001f0: 57c0 dbe7 930a d63f feab 0594 310f dfbf
00000200: c3f5 0e58 bc44 c0bf 3288 e02f 4abe d7bf
00000210: 286b 6564 d50e d33f a5a7 faf7 c45e c33f
00000220: 5f8d 34a9 ee47 e83f 8371 1bbf 90cf ddbf
00000230: 8dd8 3e8b 374e e1bf 77dc acd0 36a8 ea3f
00000240: 5ed4 fb5c 9352 c9bf b3a5 3268 6487 d4bf
00000250: 358e dce8 64a6 ddbf 177d 0621 f204 f4bf
00000260: 6583 0d3f 1832 96bf fcc4 eb9e 2c54 b2bf
00000270: 341d b995 8b5a 8a3f 2020 5ca1 f8ed e0bf
00000280: 8277 093f 8467 e63f 296a a80f 0f44 cb3f
00000290: bd8f 39de 65e0 eabf 9a5b 4024 d798 ed3f
000002a0: d9a8 c851 9379 abbf 683c 0a1a 3698 d73f
000002b0: e4b4 ad15 bd81 ee3f 6686 74bf 162e e1bf
000002c0: 0490 fd8b 8a7d 92bf 847e 46f1 0ecb f13f
000002d0: fbb2 b45e f57c d63f 9f0e 0b53 396d e73f
000002e0: 500b 8a6c ea62 d83f 7269 f120 164b c33f
000002f0: ad84 1343 c41f d03f 176d 7fca 6107 d73f
00000300: 6212 42fa 510a cebf 24ec 4689 50ab f8bf
00000310: bf57 203d 620c dfbf d94b 77b4 deff b93f
00000320: 90fb ec42 1959 f2bf c1bb 3e84 43f9 d0bf
00000330: b82d e7ae 8ba9 f5bf 37ac 52fd 3b9b dd3f
00000340: 18d3 0c84 e353 9dbf 71c6 5a08 0afb d13f
00000350: f7b4 7d20 9498 bcbf e35d bf55 e3de e1bf
00000360: 2709 970e 5b20 f03f 4e7b 202e 9e54 ddbf
00000370: bcfb 31f5 6683 cdbf 8cbd d61d 3210 d13f
00000380: 935f 0601 53b2 b5bf b622 fcae f763 d13f
00000390: 5739 52c6 f8cb ca3f 668d 173b d335 f2bf
000003a0: d043 f315 bfa7 d9bf f12b 57c4 7385 e3bf
000003b0: b064 945c a178 d83f 3e57 6e78 90ff a23f
000003c0: 4218 7bc1 5801 e23f 0bcd 8b0a 74f4 f13f
000003d0: 6745 3a9f 4064 ca3f fe43 e7ae ec23 e43f
000003e0: 61bf 0041 c4e9 bbbf 7423 3c53 6bb0 e0bf
000003f0: d60d 2e80 6c17 b8bf f1d0 528e 9d36 e73f
00000400: d1e0 b318 c8cf c73f ba55 9b82 879c b8bf
00000410: db9a 8711 260f bebf 0f6d b1e0 dcc4 71bf
00000420: 9d2d ba4c b1e4 8c3f d00c 2b24 4fef 713f
00000430: 9d96 4199 a744 a03f bff2 692d 0668 c9bf
00000440: 9b9e 7ada 5d92 bebf 331e d79f 19e7 d3bf
00000450: 8ac1 a031 7f93 383f bcc8 8a97 5988 a0bf
00000460: 9c51 d207 4943 7abf 9930 434e 276a 113f
00000470: 534c f566 648e 82bf 7f65 22d7 fe28 a43f
00000480: bd96 ad0b cd3c 74bf a405 970b 381d 5cbf
00000490: c0c5 8a81 7586 a23f 1f62 6fa5 e542 6d3f
000004a0: c7e0 69b6 dc80 a03f d896 232c 92f0 be3f
000004b0: 33bf 132a 8086 bebf 1b98 59f6 b5dc c1bf
000004c0: 0371 13a3 93fa a0bf a07e 1d0c c4e7 cf3f
000004d0: aae3 3505 6465 dc3f 0ca0 c0f8 e5ab bd3f
000004e0: 647b d8f0 62ee d2bf 872f 3b26 f210 ca3f
000004f0: bfce 25ac 3e6b b13f e9a6 2257 db93 d83f
00000500: f0de 94b4 1ec0 753f d393 0488 dcf0 a0bf
00000510: 092e 8c05 74b7 5e3f cd65 0b52 248c aebf
00000520: 2fc5 2c83 f74f b0bf aecc b211 7f2f a43f
00000530: 60b5 f230 46d3 b4bf 6521 51aa 3400 9fbf
00000540: abb9 4a6f 7248 9dbf 5e58 7885 846f c83f
00000550: 9d71 cb61 4c21 d4bf 075f 2f8f 70d0 6ebf
00000560: 7d93 c77f d66e a83f 3ab4 066a ba65 e1bf
00000570: 48c2 b88b ad33 a93f 38e8 3b0b 8b2f cbbf
00000580: 7ee5 ede6 73a6 763f 0b6c 5104 1be3 b23f
00000590: 12e2 62be e690 ebbf cd2e cb61 816d e23f
000005a0: 2988 c8bc 9bf6 dcbf b26d b68d e726 d7bf
000005b0: 1d3a dfe6 0abb c1bf bc7c 0364 0095 e53f
000005c0: 03a9 cb73 d75b c5bf d0d0 8221 969c fb3f
000005d0: c5d8 8757 651d fcbf 9239 a544 3db8 ac3f
000005e0: d5f4 25a3 290e b13f fc73 817e d56b dbbf
000005f0: 811b 2f0d f7cb e6bf 4dfb 43d4 9426 e33f
00000600: 366e f195 0b5e d6bf 03c1 7024 6dac dfbf
00000610: f25b ede7 55f3 c63f ab3e 553c 2a2a f33f
00000620: 7c29 8c05 c3fe de3f 0ce8 4345 9f60 c2bf
00000630: 2991 446e b31c f7bf 66ba c7d1 2dc1 ba3f
00000640: 69b9 4d32 9657 d83f d0a8 0f76 401f c33f
00000650: 01e1 7d5c a7c4 e73f 2659 2ee8 8917 a9bf
00000660: 8fee e51e 482a 833f 85b2 8312 763d 8c3f
00000670: 63e7 a2b6 766a 733f 66d5 115b 6b8d 80bf
00000680: 122c d270 1c6e 9b3f 17a1 78c8 8c8b 733f
00000690: f00f 9139 628f 8e3f b0f1 a3b6 f085 80bf
000006a0: d5a1 2739 13d8 a13f cced 437e b5b5 7cbf
000006b0: f492 4caa ef14 b5bf 51a0 3c00 35ef ddbf
000006c0: d062 7e47 f3f0 c03f dd82 3f13 fdb5 f5bf
000006d0: 7927 1c3e 593e 01c0 ae63 de16 b584 f2bf
000006e0: 2ea8 20d7 b83a cbbf 70a5 939e ed7e bebf
000006f0: 8f22 1d34 4889 d0bf 87cc 211d 82d5 fabf
00000700: 12a0 df98 c669 f3bf 55a5 bea4 24c9 d9bf
00000710: 4b1b dd4e b379 dfbf be95 a526 e74a e2bf
00000720: 18de c203 0f24 da3f 2ec6 71fd 9fc2 f2bf
00000730: a9b7 0d51 92ea d1bf 02f5 163d 76ba cfbf
00000740: c6ba 2753 275f ed3f e302 6a2f 5044 dcbf
00000750: c634 1034 5f7e e73f 2676 6900 7db2 d93f
00000760: e701 f9e7 bbd4 c6bf a7d9 d130 4c59 ae3f
00000770: 0b8d bd6a 04ca ebbf 1ed2 1685 2ec8 d9bf
00000780: 10b8 298f 1b78 e93f 7804 054e 8598 e33f
00000790: b172 b6dc f94b ddbf 928b d176 3c76 e63f
000007a0: 5145 4ba4 ed41 e23f 80b7 c88e 019a e73f
000007b0: 5f88 c229 cb16 e3bf c23c 0497 9b7c f6bf
000007c0: 81ac b1ec da06 d4bf 1ef6 4ef2 8902 cfbf
000007d0: 3050 c26a 3ec8 a43f 17dc 581c 65fc d1bf
000007e0: 23ed 099f 652c eb3f 3d92 36fb 3e43 d7bf
000007f0: f83e ece0 7b17 c63f f2f7 59f3 5d94 ce3f
0.21174356205559203 0.9158216075121658 -0.11388415637534777 -0.6553507096320026 -0.42704912634372233 0.7074212916613418 -0.683763357920286 -0.49283200916367237
0.21079802165557213 0.3807148403833865 0.6764326345343014 0.6773996516653633 -0.031179786041774557 -0.7898355729606457 0.5476085523612064 0.10725783415861112
1.5291858311233377 -0.15280889733433942 -0.479530203613148 -0.6330016080731777 0.4084660175373626 -1.0092936904006744 -0.3962714434837347 0.20113515778326482
1.7228521162225272 0.5722599227391937 -0.6517657601629412 0.5975897927097772 -1.2653403038553093 -0.12745224044232126 0.5757066635598831 0.5756369787636129
-0.109795016620059 -0.14961100021412518 -0.14695650817472725 -0.5129879384235714 -0.15710747497321745 -0.9150711936917828 -0.42885847943113403 0.5034999599734874
0.5043016490314862 0.17594863364231766 0.2366485054048442 -0.49937769148535793 -0.8956075563749246 -0.5639543577947952 1.725778422118406 0.9245729582658065
-0.8527368781122496 -0.23813271318931958 -0.23778632621813567 0.2973078491950442 0.145620566660837 -0.7477700796518368 0.20241440997153548 -0.04246764289154146
-0.21380980017848336 -0.7264442261914917 0.47980379287230446 -0.5728758728621237 0.136847423721587 -0.5976003848831217 0.34439561502859334 -0.48530234771050107
-0.12709764766434092 -0.3709893672513572 0.29778036884606474 0.15132963283877846 0.7587807946005504 -0.4657937876015909 -0.540797969783641 0.8330339503944647
-0.1978325084707277 -0.3207636849934616 -0.4632808946646237 -1.2512074747135722 -0.0216754711613051 -0.0715968978872929 0.01286801386517187 -0.5290492202339045
0.7001363021079074 0.2130144907431071 -0.8398923244790165 0.9249072750125038 -0.05366192220056271 0.36866524260489664 0.9533372329148304 -0.5368760814055349
-0.018057026666966194 1.1120747971362173 0.35137686012858155 0.732082998460516 0.38103733634504966 0.150728956304032 0.25193888235487344 0.3598255612866565
-0.23468994826920936 -1.5418248522171405 -0.4851308438240913 0.10156051546009283 -1.1467526068006215 -0.2652138511138525 -1.3538929779195836 0.46259975184028995
-0.028640322622965092 0.2809472161853597 -0.11170316498983711 -0.5584580111271261 1.0078993387147166 -0.45828966621950407 -0.23057257625984373 0.26661351121853083
-0.08475226187726852 0.27172653282518 0.20934972461368304 -1.138140898540621 -0.400863429485125 -0.6100405535483998 0.38236269036276394 0.03710605115990838
0.5626643923685679 1.1221809780079777 0.20618446135317045 0.6293853202897706 -0.10903574549661023 -0.5215355516130402 -0.09410741929428154 0.7254169254070161
0.18602849203285257 -0.0961384481300546 -0.11741865089389185 -0.004338133624595799 0.014108071474104028 0.004378613610870732 0.031773793657334105 -0.19848706452821394
-0.11942087730369126 -0.3109802304211115 0.00037500243491008693 -0.03229026770476781 -0.006411824489209652 6.643166449577172e-05 -0.009060654060396944 0.03937527061607237
-0.004940796813434009 -0.0017159507100220428 0.036182090819589785 0.00357193806437929 0.03223314024666162 0.12085832193005375 -0.11923981692575296 -0.1395480587845562
-0.0331617485587419 0.24926043120921282 0.4436883974918212 0.11590421031053227 -0.29579995651322677 0.20364214770085828 0.0680426759989201 0.38402446278870045
0.005310172980266023 -0.03308762703299064 0.0018747933410762105 -0.0596629476692204 -0.06372019722472964 0.03942486849828107 -0.08134878821393476 -0.030274222274131363
-0.02859667591354202 0.19090324894995353 -0.3145323710466757 -0.003761501161971273 0.04772062597093105 -0.5436679907630897 0.04922239618861518 -0.2123884014943671
0.005529835455371111 0.07377785544797193 -0.8614381521684342 0.5758673582108372 -0.4525517791354355 -0.3617495426094265 -0.13852058671041415 0.674438662852388
-0.1668652835281322 1.7257291134856594 -1.7571767253080435 0.05609313452679311 0.06662235482322683 -0.42845666269369054 -0.7123980767727148 0.5984596391498173
-0.3494900669372528 -0.49489906843793124 0.17930101227349798 1.197794185329182 0.48429942647694424 -0.14357367403118848 -1.4445070559823512 0.10451017734133358
0.38034586822950317 0.14939122929292248 0.7427555853346633 -0.049007711021817266 0.009357989733636244 0.013789102973953202 0.004740203594502865 -0.008082236019826449
0.026787227998777814 0.0047717570628622785 0.014921920186800691 -0.008067970823042753 0.03485164711657133 -0.007009228666216182 -0.08235071094220442 -0.46772503874899934
0.132353219899207 -1.3569308044317758 -2.155443654283712 -1.1573992627438474 -0.21272955421710676 -0.11912427064421194 -0.2583790310787117 -1.6771260393113907
-1.2133241626379498 -0.4029018029055654 -0.4918030042794512 -0.5716434244938495 0.4084508454065783 -1.1725158596203857 -0.27994211116208106 -0.24787786467451417
0.9178654312252881 -0.4416695082691559 0.7341762558804923 0.40151906051855446 -0.17836712672034524 0.05927503677314699 -0.8684103092931833 -0.4028431224535626
0.7959115787650735 0.6123682521648695 -0.4577622084996547 0.7019331284212618 0.5705478867404655 0.7375495709181763 -0.596532422601978 -1.4054218195995394
-0.3129184066262454 -0.24226497966257993 0.04059023907862558 -0.28102996605179115 0.8491695505357807 -0.36347937138114955 0.17259167177734702 0.23890280134577285

W_c f8 [128, 217]
00000000: 44c5 a858 81b2 f6bf fda0 51f3 7e17 febf
00000010: 8dfe 478b 85eb cf3f 284c 24d1 9b18 e93f
00000020: 49d9 73d0 7376 99bf 48a5 081e 90c8 d8bf
00000030: 3c0c 751f 2f40 c23f b11c f742 09f1 e5bf
00000040: 0993 4101 733d bebf 853a b653 a18b f9bf
00000050: 4b4a 8990 a82d c53f 3a8e 0337 7f0c ccbf
00000060: ea61 011f 087f e43f 7191 ae47 8a4e d83f
00000070: a2e5 ea0f b998 d4bf 3671 3d8c 619c c8bf
00000080: f6b3 2a7c 871f c8bf 38b2 5248 002b ef3f
00000090: 0deb d271 d2a1 b2bf f334 4762 1a12 c93f
000000a0: 91a3 8447 826c d03f f1bb d72a fedc f4bf
000000b0: e46e d38c ee50 e13f 9e32 0727 8c2a e7bf
000000c0: 37e2 3e9c 3906 c8bf 3757 6031 161d e8bf
000000d0: 25e1 3e73 3dfe a0bf e2fd 0f5f 7353 b8bf
000000e0: 5788 7017 8e48 e13f ff9d 4857 c20a c13f
000000f0: ea94 a3fe b92e b73f 5523 fa0d 1cd9 e23f
00000100: 562d 5323 ca56 f0bf 3bfc 76c8 5d44 e23f
00000110: 8bd0 6278 0464 c5bf c2d3 d4f4 6b45 d03f
00000120: 533f 1b60 3109 e63f 7053 ad4e 6b75 d7bf
00000130: 26a0 5e33 77ed d03f 2afb ab9f d312 f4bf
00000140: 8466 1376 b29d e7bf 5a14 58a4 cfb8 d23f
00000150: 312e e50a b41b e9bf 249c 044a e327 f13f
00000160: 9a3f 0957 981b c1bf a463 4772 9078 ecbf
00000170: ab54 4dee 907b 9e3f 6cf4 f75f ac03 dabf
00000180: 8bae 6065 904e cfbf b1b0 ded0 3739 e93f
00000190: ddac 8cc3 270a e33f 72da ec9d 1c5e fb3f
000001a0: 7351 da68 a1ce d13f 6d42 bf92 b21f c13f
000001b0: 4e5b dfc7 08e0 d43f 24bf 323f 4490 e83f
000001c0: 9af1 8972 690f e4bf 9dc7 98d2 a880 da3f
000001d0: 2d3d d073 34d5 d1bf 3570 877c 6ec0 5c3f
000001e0: 489c 0f1a 0492 e73f 1e03 1e49 d22e cb3f
000001f0: e74a 6bfc 9199 ddbf 1732 66e2 e1cc d4bf
00000200: 2802 46c0 4269 c3bf 9ed2 efd2 18f2 d5bf
00000210: 0dda 0f02 60d6 c43f f5bd 09ce afd3 e5bf
00000220: 0b1e 51dc fd90 dcbf e19d cbf9 bead cebf
00000230: 168a 9090 0406 e83f 8035 9877 bb27 f33f
00000240: d7af 26f7 b332 da3f 6e68 3da1 3993 be3f
00000250: a079 7c56 e5be e3bf 2250 6bbc 71b9 d43f
00000260: cea9 5624 77b8 e73f 8506 d1c4 f86f e3bf
00000270: e957 1aa0 bba1 e03f 4b12 b76b b180 d33f
00000280: ada2 c168 32a5 dcbf ef22 2e39 34a4 d23f
00000290: e81b 02e2 1f6a dfbf 314b c2ff 617d e43f
000002a0: 5d20 057f 6ce6 d63f e3b1 d486 b5fc e8bf
000002b0: fd87 3666 6a83 cb3f 9995 a9fb b535 eb3f
000002c0: 26f7 b082 c48a ac3f fd84 0770 4516 b73f
000002d0: 9c61 30e3 28b3 a23f 1e5b 330f 4a43 9d3f
000002e0: 11eb f163 ca79 afbf 0c5b b64c 3d04 d23f
000002f0: c8b9 e8a8 3320 c3bf 21f1 633f d23d c03f
00000300: 9eeb 974b 32b9 91bf 519a 6e20 a61b e0bf
00000310: 9203 272e 699a cf3f 0de4 3250 8708 d23f
00000320: bb67 5c68 7707 b7bf 8356 ca38 1380 f2bf
00000330: 8c1e bc99 2c2d 91bf f50f 261e 7eab e9bf
00000340: 34ef 1954 4231 e63f 506c 145c fec8 d3bf
00000350: 0ee4 0a3e 61d7 d2bf 804b 7812 40f3 e2bf
00000360: bb1d 7653 12e3 e53f 6b21 b666 3d82 f0bf
00000370: eee1 9b68 1192 e13f 76e8 015c 786c 933f
00000380: 19db 3c5b 0fe5 eb3f 42a4 ddee b63d cc3f
00000390: e172 65e8 3f0f d43f e043 4187 abae e5bf
000003a0: ccb2 e872 3482 d1bf 834d a7ce 6a9b d0bf
000003b0: 2c34 0aa7 cdba 6c3f f66c 996a 0ebb e43f
000003c0: 9e39 87fd feda ecbf 30c3 c9c1 4382 dd3f
000003d0: 124e a794 fe3b df3f 3472 7457 7298 c0bf
000003e0: 649b 1fd5 b51a eabf 668a d059 aa48 fa3f
000003f0: 9d31 5f70 90e5 d1bf 3d90 c533 3ac8 d23f
00000400: 44be ab01 8170 eabf 57d0 6284 4ad6 f73f
00000410: 1ccb a423 7a50 d9bf edca af04 f6f2 81bf
00000420: f8da e20b cd34 a1bf 1a4f c6c5 0f38 a83f
00000430: 423e af07 9061 c1bf 2f31 5a98 fbd3 d0bf
00000440: aa04 57e6 f876 dfbf 00c6 9ba9 0af1 b6bf
00000450: 27fa ddf3 c313 743f 6b4d 27ad 5643 953f
00000460: 5c5b b0c4 559f 66bf fef9 4d5b 66cd 753f
00000470: 9b9d 6c71 dadd 80bf bf87 1ec1 aa29 abbf
00000480: b216 b7ca 36cb 8c3f c0e0 a9bd e78f 733f
00000490: 85eb 46bf 68d3 b13f c3d3 fa25 7c9d 61bf
000004a0: 26fa 1288 9e1d 9bbf f706 268c 810c cabf
000004b0: fa01 3f1f 5536 bcbf e5d9 01c6 87b8 f13f
000004c0: a756 4571 f448 e1bf f2a7 a314 11ae de3f
000004d0: 1c62 4afd 701b dcbf 7e8d df97 b448 bcbf
000004e0: 98ec af3d 8a98 da3f a4b3 e72f e384 c5bf
000004f0: eb66 8b51 0053 cbbf 1ef7 55bf 5098 c8bf
00000500: 6142 5349 4537 b43f e0bd a593 c623 d0bf
00000510: 62e9 000f a7c0 d2bf 440f c69c 4e30 dd3f
00000520: 50de 87d0 52fe d1bf a33a c2a2 24a0 cd3f
00000530: 134e 9a72 6210 e73f 75f5 318b 9726 99bf
00000540: 366a c053 0bbd a03f dd74 4fd7 d449 c0bf
00000550: d503 2700 c752 b43f c191 057c c36a 8f3f
00000560: 3749 74c5 5780 c53f b2b6 c428 326c e03f
00000570: 75db bcdb d203 aebf 7005 6a99 aad6 da3f
00000580: 45ec d4d1 766e 403f 0648 ef79 110a d9bf
00000590: 31c1 e91f d806 0c40 e514 cfdb 10e0 dc3f
000005a0: 7c1f adf7 5071 f7bf 96c5 3fff 617a c03f
000005b0: e275 8608 aa4a ebbf f027 67c5 9f9d 0140
000005c0: 4a04 d449 5918 f6bf d62d 06af c582 e4bf
000005d0: d0bf 7aff 0606 ec3f 8edb 97da 8797 c13f
000005e0: 5982 ab35 ffa4 e9bf 9e8f f770 e574 e4bf
000005f0: 5008 5bce a23a 00c0 5f49 ef4a 26b0 eebf
00000600: e44d a71a 25ca fd3f 140f 46aa 5400 d7bf
00000610: 8bdc a3cf 3a14 d43f 0710 b665 9a5f fa3f
00000620: d3a1 fbd1 09a6 eebf b59c d4df d1e1 02c0
00000630: f556 57ac 65a0 05c0 c184 c7ad f5e0 fc3f
00000640: 8076 e362 497a e2bf 6220 1aa8 9616 e9bf
00000650: 331f 8d35 eae2 0240 a9d7 ada5 323c c93f
00000660: 5356 aa6c 02a4 86bf 8330 feed 3574 563f
00000670: 060b 2c0d c8cb 603f 037e 427d e88e 503f
00000680: 7508 cbb6 171d 6cbf be79 4a42 07bb 90bf
00000690: eea0 6dd4 13bd 623f 37dd 3ba8 b4af 69bf
000006a0: bb89 04c6 1e7e a4bf ac67 302f d352 cebf
000006b0: 205d 6238 b111 d9bf 752a bf83 7502 cb3f
000006c0: 7f6e 9232 4e27 f1bf fd16 9e38 32e5 d23f
000006d0: 9c9c 36d3 dfdb e4bf 8b96 54e1 fd53 e03f
000006e0: 5dc2 b7e8 623f e33f d05e 9a4d 06d3 cb3f
000006f0: b0db 3d18 6c39 de3f 2b51 9f1a a222 d3bf
00000700: e42f a176 6407 d93f d343 5415 ecbf d73f
00000710: 13ff a0ed f72b b23f bd98 fd33 5bfe e23f
00000720: 0dd7 6e58 0cb4 d5bf 1a55 f9d2 c427 4bbf
00000730: 2288 ac60 7d1a d23f c29d b4ca cc4a a4bf
00000740: 0b02 57a6 2062 b83f 8491 ffae d769 a63f
00000750: 9786 0cb3 5561 d5bf 42db 019f e72a d3bf
00000760: ca00 aad8 db1e b53f 3151 25b5 2291 e13f
00000770: 2100 88da 94d8 d5bf e7b2 b59f 6a0c f3bf
00000780: ef96 c781 f183 d6bf 3de5 8706 9242 e73f
00000790: 55fb 1b2b ee23 ccbf 0273 19dd d26d b7bf
000007a0: aa8f 1de6 f74f f03f dcf9 af1a b16a e6bf
000007b0: 1a36 077e 3b51 c73f 4e71 8011 b61f e43f
000007c0: a4c0 e6b1 24d8 893f 3823 8eb1 f04f dc3f
000007d0: 74ff 8ff0 9ece 5bbf 1762 19f7 512b a73f
000007e0: 40df de05 64fd b3bf f652 cb62 60f0 c2bf
000007f0: 715f 09b3 0f45 cdbf 8a88 ceaa 56f7 d73f
-1.4185803855182977 -1.880736303772266 0.24937505055276113 0.7842539868164566 -0.024865922544415473 -0.3872413914965205 0.14258374248501748 -0.6856733615794807
-0.11812514095943184 -1.5965894002908112 0.16545588548122434 -0.2191313761351113 0.6405068021368241 0.379793710710394 -0.3218214660115227 -0.19227237079292941
-0.18846219599564024 0.9739991581496446 -0.07278170851615702 0.19586496161210895 0.2566228578967236 -1.3039533303779047 0.541129374552352 -0.7239437830226796
-0.1876899731557999 -0.7535506214505635 -0.03318969756895943 -0.09502335615979221 0.5401068170360855 0.13314084302804471 0.09055674044391862 0.5890026352873102
-1.0211888675574605 0.5708455005004746 -0.16711479070875543 0.25423716458618284 0.6886221768454369 -0.36654169734293074 0.26449375168386025 -1.2545963513545737
-0.7380001360099446 0.2925299744532076 -0.7846317494199352 1.0722382441833895 -0.13365463495074154 -0.8897173149117532 0.02976824240189006 -0.40647420284205427
-0.24458508443909852 0.7882346229066767 0.5949896640135212 1.7104765099481054 0.27823672523051995 0.13377983250986195 0.32617396849439195 0.7676106676426326
-0.6268813359343313 0.4141027504548392 -0.2786379939070283 0.001754863640704774 0.7365742215159878 0.21236637659242147 -0.4624981846838367 -0.3250050269059854
-0.1516498030505471 -0.3429014263086091 0.16279220677070363 -0.6820906662159688 -0.44634958758658233 -0.23967730710067683 0.7507345984961968 1.1972002669966457
0.40934466491557714 0.11943397699852351 -0.6170527161773869 0.323818620684735 0.74126774880761 -0.6074184269020441 0.5197427870759813 0.30472980040602654
-0.4475828192721945 0.2912722166443435 -0.49085232802502654 0.6403055186550316 0.35781395344065975 -0.7808482774176436 0.21494798651571037 0.8503065028459559
0.05574621291496688 0.09018358216373552 0.036523130162268574 0.02857700078751712 -0.0614760634425321 0.28150875560224686 -0.14942022082818895 0.12688663573488504
-0.01730803095231758 -0.5033751138151478 0.246899745498038 0.2817705424491244 -0.08995767877459475 -1.156268331372673 -0.016773888476591156 -0.802184161075728
0.6935130732158314 -0.30914267532506745 -0.2943957429775431 -0.5921936379184984 0.683968699465303 -1.0317968380132594 0.5490805667059797 0.018968468299569406
0.8717114240633662 0.2206333795868734 0.3134307641501391 -0.6775720254610142 -0.2735720750959387 -0.2594859140492291 0.0035070435190563045 0.647834022714419
-0.9017329169962982 0.4610757248365642 0.48803677098223475 -0.12965230245835502 -0.8157605326240227 1.642740584219291 -0.279636487711082 0.29347090774377077
-0.8262333901056498 1.489817158825664 -0.3955369327624554 -0.008764192598368104 -0.033605964375444886 0.0473027161525847 -0.13578987479421484 -0.26293840292125287
-0.4916364907658798 -0.08961550370056415 0.00490166229235326 0.020764688795521218 -0.0027615237390920377 0.005322837668130463 -0.008235651575502703 -0.053052269052627825
0.014059475003601694 0.004775910604273459 0.06963209791039844 -0.0021502899906757646 -0.02648017602472854 -0.20350665419760336 -0.11020404827923605 1.1075513586671317
-0.5401556217500073 0.4793741895251734 -0.4391748879948254 -0.11048439700930676 0.41556030296460156 -0.1681179031287715 -0.21347049695651008 -0.1921482977158399
0.07896836319128787 -0.25218357485479537 -0.29300857987586515 0.4560734301560283 -0.28114767422036824 0.23144967982485296 0.7207500685057674 -0.024561279173658208
0.032692293141924386 -0.12725315583421706 0.07938808206291921 0.015340354177802664 0.1679792131549875 0.5132075115449963 -0.05862292225213298 0.4193521974740042
0.000501449601564182 -0.3912395182388767 3.503341912575842 0.451175894410268 -1.4651651072362872 0.12873482669196495 -0.8528642813213845 2.2019648954492297
-1.3809445270456018 -0.6409634035530256 0.8757357587655807 0.13743684934135242 -0.8013912246934282 -0.6392695623767286 -2.028630840447512 -0.959002634388792
1.8618517914918522 -0.359395185740355 0.3137347247824855 1.6483406041234063 -0.9577683545331247 -2.3602635847815585 -2.703318926253696 1.8049217975861185
-0.5774275714317838 -0.7840073855632108 2.360798281068037 0.19714959230230747 -0.011055010739521231 0.0013704802185854632 0.0020502955679843086 0.001010634460761995
-0.0034318411984211547 -0.016338456555439633 0.0022874247837770733 -0.0031355408153747283 -0.0400247208329065 -0.23690261654047384 -0.39170485025666046 0.21101254399248473
-1.0720960593670552 0.2952390244393966 -0.6518401265392586 0.5102528954491431 0.6014875931997029 0.21737746037682948 0.4722547756895734 -0.2989888439162935
0.3910761984341191 0.3710890014927461 0.07098340560423493 0.5935493483964575 -0.3391142715075695 -0.000828715425039181 0.2828668064195218 -0.039633178467109356
0.09524730740577796 0.043776264297579665 -0.33406584248778287 -0.29949369934131564 0.08250211753511674 0.548966745186169 -0.34134408322279525 -1.1905313719427626
-0.3518031852130283 0.7268762710147382 -0.21984650711962198 -0.09151952646193354 1.0195235241780929 -0.7005239030111698 0.18216651586264804 0.6288709966498034
0.012619291953200502 0.44237916316392356 -0.0016972114701729575 0.04525238171908457 -0.07808518546414422 -0.14796070884644735 -0.22867008440038775 0.3744713466677544

W_o f8 [128, 217]
00000000: 516d d341 17ab dc3f fabe eab9 f785 eb3f
00000010: 8530 74ac 1761 c1bf b628 40d2 268c e53f
00000020: e231 b7ff a234 de3f d5dc 3175 27d7 e73f
00000030: 1eac 8eac 10e1 c73f 70cd 1f33 0e4f 0040
00000040: 2e09 c1a8 1469 b63f eb78 48a8 839c f83f
00000050: 1ad9 36f1 d03d b33f 362e 4e80 8229 e53f
00000060: 0b55 2d43 131c e0bf 6c79 80ec dbb5 bbbf
00000070: b94f 4d8f 5225 ecbf ed51 fa9e 44b5 f03f
00000080: 0aa4 6802 b184 cebf 6b7f 433b b17d ad3f
00000090: 99ab 8a09 2dcf e63f 39dc 8f5e 096a f13f
000000a0: 1e98 83bc 74e9 e5bf 457b 9c63 bd90 e6bf
000000b0: 39ab 6f9f 6054 f43f afcb a903 80a5 dd3f
000000c0: 3d33 eab6 a1cb f53f 0ad7 1e49 ca98 efbf
000000d0: 19a0 1a28 2bbb bebf f65b b93d abae ca3f
000000e0: b112 a820 17f0 e03f 6103 c472 5449 ac3f
000000f0: ffc3 f811 8ce0 d13f ff73 01ee 2fc1 de3f
00000100: d20c 3aa5 595b e53f 23cb 313f 6efe de3f
00000110: 9226 cf5e 645b f4bf c745 4cbb af20 ee3f
00000120: 4fcb e9ad fab2 bd3f 0ed9 94cd 0310 e1bf
00000130: d9ba bb6b 7e53 cd3f 687a 9e3f ccda e9bf
00000140: 9303 21ab 227c e73f 68f0 bfec c281 e43f
00000150: d351 f99d 6360 d93f 5187 bf65 a662 e6bf
00000160: e193 bef8 da1e e1bf 88ba 7277 8169 c33f
00000170: bbe9 079f b842 fb3f 4630 928c 3c98 b63f
00000180: 0a48 3a76 85aa b63f 5f56 79d3 e9cf c53f
00000190: bb0f 9381 32fe b2bf 9858 bff6 2b63 d7bf
000001a0: f847 4cff 65c4 e6bf 597a 7374 f0b0 fb3f
000001b0: a945 1ebd 6b0d edbf 3540 34bb 7ec3 e23f
000001c0: 186c 07d7 08d0 f9bf d1f9 ed01 a9de 843f
000001d0: f6eb 2ba7 0819 e5bf accd e109 e16f cdbf
000001e0: 2b07 0550 454e f13f fdd5 a640 05ca babf
000001f0: 3354 9df6 4dd6 f0bf 4019 92a1 58d9 e03f
00000200: a381 b754 67e3 e83f 2315 a2cb de61 e93f
00000210: 2cce 8535 8c35 f0bf 97aa 5658 4344 e23f
00000220: fbe0 6bfc 5b2c fbbf 14fa c735 b43d f5bf
00000230: 75c1 6491 7e05 81bf 779a b130 3df3 f3bf
00000240: 4ced 5632 5eb1 f33f 3aff ecfc 9271 9fbf
00000250: 16d0 6280 5e8f d83f 31f6 6d6c c685 e5bf
00000260: 65d0 eb70 78bf d4bf 8b7d ac95 29d7 ec3f
00000270: 97df 8dc2 1da7 b23f 5435 15d4 676e df3f
00000280: 80f2 e2ca e347 f53f 5edb 2a06 9471 6e3f
00000290: a0d9 e220 6db4 c6bf 9b72 83e7 2c62 f2bf
000002a0: cfd8 7ed9 cdf2 d8bf 4510 0872 0f22 9b3f
000002b0: 7812 4bb9 2a9a e73f bff6 cdc2 48bb bbbf
000002c0: 9fcf 0c7c f474 d5bf 90dc 2ec8 a02c d83f
000002d0: f383 7d49 c268 d9bf 187f d43e f352 c2bf
000002e0: a885 e436 7cc3 bbbf 43ba 4350 7f82 ca3f
000002f0: ef2b d159 ab79 d2bf 6a68 e30c 7d83 ee3f
00000300: 22fa 7e5e 7595 e73f aa81 cf44 3346 d93f
00000310: 6e42 d8fe 7f34 e2bf 1719 720b 08eb cabf
00000320: a788 2ace 5656 f33f bb2a 3980 7462 df3f
00000330: cea6 6d4e 1dc5 a2bf 8ae6 884d 0a83 e7bf
00000340: a00a f48f 21ee fc3f edc2 aa75 a800 debf
00000350: 51bd 61da e4da c9bf 4ec1 95ec f98d ddbf
00000360: ab12 0874 83de d13f 0dde e0e7 8886 e2bf
00000370: 4b43 ab6c 8f8f d23f 6de9 a29d a860 d3bf
00000380: 0edc b04f 6e16 f1bf 1196 3f5f 921b eabf
00000390: 4256 6dc8 783c dbbf b296 b899 1089 e33f
000003a0: 62a2 e031 06bf c9bf 7fb2 fc14 19f2 e93f
000003b0: 677a 18d7 745a e4bf 81ca 75cb cdc0 d33f
000003c0: 39e3 2042 2b5a e13f 833d 9cbd 9d56 d5bf
000003d0: 9d38 e09b 8549 d0bf 64df eb6f 751f f1bf
000003e0: bbd9 c7e1 c3c1 f1bf 72e7 3cbf 6279 e0bf
000003f0: adeb e7e8 8215 e2bf e622 329b 0810 db3f
00000400: dd07 0eb7 5baf ec3f eb31 8672 791d e23f
00000410: 8f15 4b12 7016 b1bf 9945 1f41 73d0 bbbf
00000420: 6bbd 9c2d 829e 913f e567 8cf8 eb01 9abf
00000430: fd7c 2419 4f44 d33f 8261 2adc fd7c b53f
00000440: db45 a789 9ffa e6bf a8fc 3fd3 80f0 ddbf
00000450: 694c 9c4b 3a6c 753f 13a6 4216 0d03 b8bf
00000460: 5aac 2443 da81 823f 2165 4f9a fdb3 82bf
00000470: 702b 34f1 b7ea 78bf 927f d61f 5a96 a13f
00000480: 37cf 18bb bbf8 773f 67de 42c4 9650 6dbf
00000490: af5e d60b f468 a03f 6859 2cca 6835 8fbf
000004a0: 5da0 6bb0 0618 bf3f e45b 1dd2 9b41 97bf
000004b0: 0f19 c3f5 7d51 b93f 5827 a5d2 8d5f f1bf
000004c0: c8ff dae6 a048 c43f fdde a539 4ddd dcbf
000004d0: 72fc 25f5 2832 e43f 4b39 21a2 bc0d d4bf
000004e0: 06bd a8e8 04b8 e0bf 7a6e e12d 129b d63f
000004f0: 7cce 18e2 8a94 f2bf 1a3c 1bd9 2618 dc3f
00000500: 7f5a 6cb2 a6b8 d3bf cc3e ade5 7e72 ec3f
00000510: aae9 d750 14a3 e13f e004 6bd0 d135 df3f
00000520: c3c6 9892 6571 e03f 14b4 9aea 146b a43f
00000530: b7cc 8a29 c9f5 bc3f 15d9 564f 1a16 9dbf
00000540: d8bb 429a 5362 d43f f3ed 1d7d 4a14 a7bf
00000550: e22c fe34 56b7 ccbf eccc 1e09 43ea 913f
00000560: 87c5 3a77 abbd ddbf 288d 6a5b 1da0 efbf
00000570: d452 da34 65af d43f 748d 0d06 1c17 ae3f
00000580: e333 dce3 f6b5 80bf 0dbd 8151 e1cc da3f
00000590: 6137 e323 fb46 fdbf af44 1401 8efc f8bf
000005a0: bf8c 4582 f3b6 0040 5459 497e 2e97 e1bf
000005b0: bd31 acb6 d8e2 f23f 7f4d b1fe d853 cb3f
000005c0: 7cc9 7a4e f019 f93f d8f5 eee5 9373 f7bf
000005d0: e134 1b04 b67a dc3f a062 c05b 9055 a73f
000005e0: e2f6 2984 0289 c3bf d913 14ba 9df6 debf
000005f0: 7782 8db8 0135 f2bf 242c 1333 3063 d8bf
00000600: 8e57 8d7d c79e f53f 4e00 e6ef 12a5 ffbf
00000610: 87d1 9187 9d82 c0bf 0c9c a505 3d54 d4bf
00000620: 154d fc4f 4ea9 da3f 5043 d9ce 15d2 d0bf
00000630: e38d 1d02 eba5 0140 46bc 843d ca54 c0bf
00000640: 6ad8 70f4 cf1a f13f 5bc5 b9c4 98e3 d03f
00000650: f2fa 5825 a1df 84bf 02e4 a673 5c4b e0bf
00000660: b306 16e2 1b06 72bf 9397 9cb6 027f 8a3f
00000670: 3c46 66b3 8606 6a3f b42c 4d42 62e0 833f
00000680: b698 25d6 1f5d 5bbf cef9 fe93 5a66 833f
00000690: 1630 ef42 3690 91bf acca dd7a 5ded 93bf
000006a0: ba55 c05c e774 88bf b496 bb92 d5bd d03f
000006b0: e378 216c 626f cc3f 3b9e 7781 9dd5 d1bf
000006c0: e87a a25f 74a9 ecbf fae9 9e58 1fd1 bd3f
000006d0: 0e65 a56a e357 783f 8ad9 c132 7c4c ee3f
000006e0: b221 f2af ca02 cd3f 0e97 038c 2642 a63f
000006f0: 6ca3 3782 a5c3 f2bf b4d9 7e71 7c9a d3bf
00000700: 98a4 cc6a a91a eabf 5f9e 797e fd67 f23f
00000710: 95ef 74b0 66c2 d13f 3b81 4202 bdd0 f1bf
00000720: 1d2b d7be 6456 d2bf 58a1 3af4 4092 983f
00000730: 66b4 c2b0 2fc4 d3bf 5414 d7fe 8095 c53f
00000740: 73e5 2baf 3bf3 db3f 68aa 7edb 0feb a7bf
00000750: a188 b126 9d2a c63f ff52 a76f 7b90 e03f
00000760: b03d 1378 3af0 d4bf e588 b03a e040 d6bf
00000770: 2f8f 43c5 55db b83f a02c 88a6 e78e f1bf
00000780: 7608 3348 4581 b2bf 6755 c3d7 fbfc f23f
00000790: 74e9 6f85 b435 dc3f d418 4547 9869 e43f
000007a0: bcc8 2619 003d f9bf 9fa1 a889 bfdb d43f
000007b0: 03a0 5dc1 83a7 f43f f642 c9c5 b927 c0bf
000007c0: b7f1 4051 09a9 6a3f e9bd ee7e a8b7 d23f
000007d0: 103a fb42 6a34 f1bf 3fa9 3005 6d21 843f
000007e0: 2ecd 7422 8f1e e0bf 6501 f38c d01c 8fbf
000007f0: 168d 8e75 f208 a0bf cfae 3da1 9bed f1bf
0.4479425566512037 0.8601034766379307 -0.1357755271968736 0.6733583551843114 0.47196269008853 0.7450139321289507 0.1865559427800187 2.038601302536044
0.08754090423557123 1.5382114957388306 0.07516199006099492 0.6613171106304836 -0.503427153783066 -0.10824369930239691 -0.8795559691302436 1.0442548952170185
-0.23842442147841353 0.05759958122666727 0.7127900301323847 1.0883878415895778 -0.6847480470576135 -0.7051684327633231 1.270599959180528 0.46322632177105566
1.3622147698508364 -0.9874011448034434 -0.12004346589185423 0.20845547212476817 0.5293079030821756 0.05524696255634499 0.279330270338562 0.4805412124895269
0.6674011447033996 0.4842792145856711 -1.2723125174983676 0.9414900453722844 0.11601225610665476 -0.533204938436741 0.2291105295220948 -0.8079587214049981
0.7339032499659076 0.6408400177019873 0.3965081255639948 -0.6995422351139756 -0.5350165231981202 0.15165727932386042 1.7037893497605257 0.08826044494543436
0.0885394490854027 0.17040751291158338 -0.07419124282301841 -0.36542796226911767 -0.7114744173325098 1.730698065650037 -0.9078882878986195 0.5863641411142512
-1.6132896804399532 0.010190315600763807 -0.6593058838910781 -0.22997677786370951 1.081609070374223 -0.10464508846674643 -1.0523204453832136 0.5265315204312984
0.7777592329621722 0.7931970574578923 -1.013073166916807 0.5708328938829536 -1.6983299122057918 -1.3275644398523854 -0.008311260997829287 -1.2468845274067044
1.2308027235402106 -0.03070668858276735 0.3837505582589541 -0.6725799672855769 -0.32418643023925703 0.9012649463001464 0.07286249160631396 0.4911136218186887
1.3300512242559819 0.0037162676902328514 -0.17738117318886015 -1.1489686053747963 -0.3898195861796809 0.02649711736195594 0.7375692004212189 -0.10832648044557923
-0.33526336778890625 0.3777238802826526 -0.3970189778975161 -0.14315643852113946 -0.10845161762383404 0.2071074621121217 -0.2886761071319474 0.9535508395886272
0.7369944425225337 0.3949096843698735 -0.5689086892544546 -0.21029758986350863 1.2085788777699606 0.49038422128493736 -0.03666011412026436 -0.7347461237288411
1.8081374762702254 -0.46879016390725675 -0.20199261344121536 -0.46179054359437977 0.2792061455841501 -0.5789227036356707 0.29001222240645025 -0.302774576131603
-1.067976294796384 -0.8158656940765373 -0.4255659062667726 0.6104815485347983 -0.2011420959036228 0.8108029756454725 -0.6360420418821605 0.30864281529571974
0.5422569552966713 -0.3334116317427844 -0.25448742124798135 -1.070180356209641 -1.109805948215224 -0.5148175940623629 -0.5651258992141855 0.42285361438602675
0.8964060378350457 0.5660979496765867 -0.06674862333883012 -0.1086494478215826 0.01720622447390722 -0.025397955937570677 0.3010442491085568 0.08393847108016497
-0.7180936516326101 -0.46780415181997137 0.005230167118287368 -0.0937965564104604 0.009036736654328848 -0.00913236739318052 -0.006083220028140754 0.03435022009511991
0.005852444957372963 -0.0035784668599168515 0.03205073017596526 -0.01523858897193682 0.1214603596414476 -0.022711214732534915 0.09889971971560761 -1.0858286121678784
0.15846644661178133 -0.45100718145066293 0.631123045735775 -0.31333843071924566 -0.5224632782100407 0.3532147834828049 -1.1612652618322548 0.4389741058520841
-0.3081452124037369 0.8889765249131982 0.551157148263248 0.48765988686871076 0.513842378923265 0.039879468572827786 0.1131253935262063 -0.028404627888186946
0.31850137772101794 -0.045076682828007274 -0.22434499347250553 0.017495200568828403 -0.46470152514947255 -0.9882952485535599 0.3232052818432696 0.05877006124390052
-0.008159569576969566 0.41875489196441223 -1.829829349695011 -1.5616588632731625 2.0893316438174163 -0.5497047869237499 1.1803824554109348 0.2134963267913967
1.5688326898203675 -1.4657172185683205 0.44498968506816367 0.04557467575086105 -0.1526187081653268 -0.48380225345345945 -1.1379410943119674 -0.38105397212774705
1.351264467657049 -1.9778012629540345 -0.1289860641442255 -0.31764150191742213 0.4165836125477694 -0.2628225822455095 2.206014648940014 -0.12758758548577215
1.0690459774464451 0.26389140330782873 -0.010192164375550903 -0.5091993578745362 -0.00440035716872138 0.012937565992227984 0.0031769400477024406 0.009705321930275047
-0.001670151796668002 0.009472568170051068 -0.017151687465045105 -0.019460163711708375 -0.011941726224942485 0.2615865643441382 0.2221491840345556 -0.27866304057394914
-0.8956853740563391 0.1164722052916786 0.005943191858329712 0.9468365661003173 0.2266476973638994 0.04347343882709086 -1.1727652632345906 -0.3063040836672386
-0.8157546125340955 1.1503882351334125 0.2774903033457517 -1.1134615028641537 -0.28652304302947745 0.023995413691097894 -0.3088492609193224 0.16862499659888164
0.4367207728060613 -0.046715255302235914 0.17317547215777032 0.5176369839415144 -0.3271623776062951 -0.34770971042065774 0.09709678712857504 -1.0973888878968765
-0.07228501331977263 1.1867636135333102 0.4407779028985239 0.6378899948110992 -1.5773926718216407 0.32591236537202833 1.2908971360539006 -0.12621233136680815
0.003254430959741063 0.2924596061302212 -1.07529665150253 0.009829379769219158 -0.5037303612684008 -0.015191678334645695 -0.03131826100368522 -1.1205097483133846
