base_model.npz (npz, 989696 bytes, 12 tensors)

W_i f8 [128, 217]
00000000: af64 3e15 13e3 a43f 185c 4c4a 5853 efbf
00000010: b045 2591 a22a c3bf 96e7 ad14 976b c43f
00000020: b412 27f9 7c28 e33f 1562 d04d 439b c03f
00000030: 579c 057b a390 c5bf a1bd faa7 aa67 dabf
00000040: 6121 5cb0 64ab abbf e9e4 97d0 455a e0bf
00000050: 3b65 3681 e01e de3f c68a 4990 b660 bdbf
00000060: 305e 5a1c 9824 f2bf d9a1 f725 9484 bb3f
00000070: de25 a9ce 9908 e1bf 2349 aaf8 d2b9 c4bf
00000080: afe3 b635 52c3 b63f cd02 363c 925f c03f
00000090: ed64 544d fdf2 e8bf 86d1 e907 6242 d0bf
000000a0: 3c2d 0973 2fe2 da3f d56e 3c3b 2457 b93f
000000b0: 91fc 4554 d62e ba3f 953b 313e 068b e83f
000000c0: 63a7 771a 980a e43f dde9 c9ed a234 d4bf
000000d0: 1295 2ace 1116 e13f f897 8f6c eeaa 643f
000000e0: 2d2f b7c6 49d7 fb3f d81a b6e6 0dac e03f
000000f0: 1e97 27c0 aca5 ab3f 137f 1961 fa42 c03f
00000100: 587c 52e0 8d70 e9bf 1aaf d034 a444 dcbf
00000110: cf81 4cca 7008 d63f deba 6243 3735 ecbf
00000120: 083f 5851 7c54 e7bf d1d2 a9a8 c983 fcbf
00000130: 96b0 1a27 ce9e d83f fbff d69c 5be9 e43f
00000140: bb60 9ae6 a2ba ccbf f4ec 03c4 4a89 cebf
00000150: 58b6 0f74 9708 bdbf e0ed 11e0 91cc e8bf
00000160: 07a1 3127 7f46 dc3f 4227 c931 0c43 e5bf
00000170: de27 e189 9453 babf b73c e933 b150 f63f
00000180: 3696 2b8f c0c0 d63f f919 9e9a 01e0 e43f
00000190: a6e3 a189 a0c3 d13f 3939 d090 7787 f7bf
000001a0: 986f 9d2c 3846 d5bf 833b c024 1c18 da3f
000001b0: ff4d 60d5 97c3 d4bf f441 46c1 be1a f1bf
000001c0: e9b6 c721 b482 d43f eff8 724d 805a ef3f
000001d0: b995 55dc 9811 a63f f77d ef27 2ab0 e53f
000001e0: 6bdc d153 304c e4bf ce45 912e 6beb d73f
000001f0: 0390 af0d d99a f5bf aadd 5965 b2a4 e0bf
00000200: 837c f9a7 8b91 ddbf 9652 0f82 5ad7 aebf
00000210: 15e4 4b27 6063 c2bf 340d 75bd bcec e8bf
00000220: 9b67 ece8 52d0 c8bf 8f68 e49b 3bd7 ea3f
00000230: 8fae 5f7b 78a9 ca3f c686 eacb 4033 eb3f
00000240: 46e2 80a4 2713 ecbf 2658 0ae5 1866 b73f
00000250: 473b 0af4 a95f c63f f265 12a7 34a4 d4bf
00000260: 604d 168f 7782 c63f fde3 2b31 bbe6 d13f
00000270: 0b1a b8bd cbfa b43f f3c9 4734 e157 dabf
00000280: 7e6f cfe6 df69 da3f 3a5a 5797 30ae c9bf
00000290: c5f9 eb31 2029 dfbf 2c28 253f 0723 c3bf
000002a0: 1c1f e5ce a5b5 ce3f 741e 88b3 94ba c83f
000002b0: 4ca4 9782 45a9 cb3f 2dfa c2b6 dc94 d1bf
000002c0: 1531 0fb6 9ac0 d43f 6284 8aeb 5667 a83f
000002d0: e133 0f2d 971d d23f 9039 1db3 e102 bcbf
000002e0: f0cd e306 f2d4 e03f fc76 11e6 a3c7 ef3f
000002f0: a462 2820 f75b e5bf 9c01 bf41 7536 d13f
00000300: 33a5 4da9 6da0 e03f f42e 76fc 2352 e6bf
00000310: 841f 1449 e454 d8bf ec7e 7e3a 5024 ebbf
00000320: 1421 4cf8 49a2 cc3f 85f2 c53e fff6 423f
00000330: 124c f6e6 19c4 f63f a322 7086 d715 ac3f
00000340: 4c3c b4dc 2e50 f2bf 6b5d 5490 594f c33f
00000350: 7296 5cc6 7c65 b93f ca40 6c37 e62d ea3f
00000360: 5e78 73ce c187 eb3f d541 5a29 5dd1 e83f
00000370: 6a31 2aaa 0cc4 d4bf 4ad2 0fce 78ae e2bf
00000380: cd11 6d51 74e3 e13f b764 0ce1 ddf4 da3f
00000390: b60f c482 b069 dbbf 946b 3911 ac36 d8bf
000003a0: bbff f434 9e6a e1bf 862e cf88 62e9 d23f
000003b0: 4218 3b3e a858 db3f a674 e21e 0080 ea3f
000003c0: 23a4 50ac 3ea6 f03f 65b2 f719 88de a93f
000003d0: 207e 3c57 72d9 d1bf f17e 635a ef7f b7bf
000003e0: bec9 aa4c bc67 c63f 8915 1b7e e3bd e6bf
000003f0: 4cf3 8544 66b3 f03f e32c 9c2d f201 d6bf
00000400: 4476 c543 5d5e e83f 45e4 4beb dd32 f23f
00000410: ddf3 79ab 2a41 b9bf de74 c4c0 d169 8abf
00000420: 32d1 c337 1125 79bf 82bd 7918 eb35 7fbf
00000430: 23ad 37d5 b236 913f f4be 2442 4487 ca3f
00000440: 1c10 b1a7 58e5 e93f 4bec 1ac8 7d91 e3bf
00000450: 3c96 4765 2328 903f 640d d936 871d 4dbf
00000460: 410c cadb b908 49bf c322 9091 a53e 933f
00000470: 4a3e 6565 bf45 793f ecfb 1293 e7c3 63bf
00000480: ee70 b693 0845 68bf 35e9 8c9f 27f4 85bf
00000490: d8dd f498 e880 a23f be29 53c8 ccc5 7ebf
000004a0: 6466 87a6 3233 b13f 4843 3e1e c03f c03f
000004b0: e133 8066 2ae7 adbf 141c 1374 7e49 a33f
000004c0: 4c9c b344 4e85 9fbf 8522 f0dc be38 dbbf
000004d0: e793 8e9d a19e d13f 97f0 08ec e13c bf3f
000004e0: cca0 dd86 fe45 d0bf 2d64 5f8c d6f2 cf3f
000004f0: 4bf6 b844 0984 d03f ebeb 40a3 ce8e d03f
00000500: 9c8f f999 0390 57bf 948d 9969 fb21 c33f
00000510: 66e3 40ec e842 c03f ec79 07f6 aadc 953f
00000520: a16c a30c 3aff c03f bb8f 1148 8210 c8bf
00000530: fc0c 0a3b 071b a73f ac69 02c0 4dec 603f
00000540: 7c24 6b77 ccea bebf f413 678e cd5d 65bf
00000550: 9bb4 04c0 7436 c0bf d0ab fe18 54fd 78bf
00000560: ba3e 3ff3 8b7d bcbf 215c f265 65f1 d3bf
00000570: 9ea1 31f4 c1fc b83f 5c27 fc7b ea04 c4bf
00000580: 0048 95e8 3e0f 85bf 076f 8947 faa0 c2bf
00000590: 26f9 4a8f 0dea e83f b46b 9e92 95a6 c6bf
000005a0: 7008 99af 97ae d23f 187f 3d3a ae63 bcbf
000005b0: 9f53 060f fd37 f2bf 5300 19f4 5832 d3bf
000005c0: 4048 69d7 4c0e d53f e047 11b9 4922 f5bf
000005d0: b753 72fd 0b43 f9bf 52ed e1ef 6fc1 b53f
000005e0: cd34 aa1d c63b a3bf 8bc4 ffd3 90a1 e53f
000005f0: 20a0 1fad eda1 f1bf cb12 48ec 1752 b63f
00000600: f67b 626b 36ce ccbf 16ea da84 d4a8 c13f
00000610: 3d3b c980 4073 c1bf 92ba 2eee c420 db3f
00000620: 272c 458a 72fd cb3f 8d73 5bcd a86a f1bf
00000630: e396 fd1f ddae f53f 56c0 a849 64aa cbbf
00000640: 6cc3 bad5 a626 d73f a3f3 3198 93b0 e33f
00000650: ebfe 7679 3c49 e5bf b40f 32a5 a1cd d4bf
00000660: 43ae 79f2 5d47 813f 614a afe3 39d3 7abf
00000670: 09b6 7a06 d65a 66bf d5e8 6b08 8de1 803f
00000680: 65c1 81ed 6b0b 5abf 11c7 5b4d aaa9 87bf
00000690: 073b 5366 e53b 72bf fea4 8353 8bc2 7a3f
000006a0: 07cf 7eac 38e8 c4bf c7d0 3457 6be6 d33f
000006b0: b0ab 93e8 b487 cbbf 66b9 3654 8fe1 8ebf
000006c0: cdd4 687f 3f36 d0bf 3e2e bd44 206e d6bf
000006d0: 7513 6ec2 b9fa b0bf 210f 24e3 c56b d7bf
000006e0: cedb c54c 9920 e5bf 7533 3e07 b2ee c63f
000006f0: 8c75 646f 81b3 f43f ea05 7396 ad9d db3f
00000700: 2576 471e b06c db3f 488e cc8e 9c75 e3bf
00000710: 16f5 9700 b40e 99bf 1c4b 1c07 6e72 e8bf
00000720: 6e22 91d3 3de5 eb3f f892 9f24 da82 f9bf
00000730: 236d c2c6 1e02 aebf 543a 0c41 667e d8bf
00000740: 7709 d186 c842 e13f 5694 8344 30d3 b6bf
00000750: 2c84 cbdf 65a5 dfbf 83c9 2c63 6e76 d43f
00000760: 3e38 917d b4ae c53f c1b9 eab5 b604 b0bf
00000770: cff1 c544 f93a d13f d4bd 45c3 e912 ccbf
00000780: c741 e55e 8e14 d4bf 1e38 dc9c 6220 eb3f
00000790: 47b3 af5e e24a d13f be5b 2e0a 7455 b23f
000007a0: 870f 8cc8 919d edbf 4e0b afa0 62a4 d7bf
000007b0: b5c3 dba0 d765 d4bf 6441 1a15 c932 c1bf
000007c0: 4a7b a2fd 6fb8 d23f e85d 75ad 9f5a d1bf
000007d0: f3f8 d286 87b9 e6bf 0e1f ae6f 5bf9 e0bf
000007e0: 2185 8f88 bf95 d0bf 7a28 583a 3a2b 9c3f
000007f0: 41ff bcd3 5ce0 a5bf 7304 0596 7420 debf
0.04079494127581406 -0.9789239359987532 -0.14973861777484165 0.1595333910916536 0.5986924043905533 0.12973824786674074 -0.16847651965074092 -0.4125773086952567
-0.05404200222807521 -0.5110196184242827 0.4706345807877203 -0.11475697538984794 -1.1339341266192484 0.10749174048363076 -0.5322999035208189 -0.16192090169767778
0.08891786395442013 0.12791660251607198 -0.7796617994637508 -0.25405169270313654 0.4200552581211985 0.09898592420762083 0.10227717931228343 0.7669707503026638
0.6262932316724171 -0.3157126733928218 0.5339440371214172 0.002522912666324647 1.7400605928732589 0.5210027223664282 0.05399837346685231 0.12704400769416022
-0.7949895268719827 -0.44168954045993447 0.3442651725363505 -0.8814960781217811 -0.72906318557395 -1.782174738732625 0.3846927053334722 0.6534860671308701
-0.224445688819065 -0.2385648209673047 -0.11341234763650598 -0.774971902500905 0.4418027765991756 -0.664434525716594 -0.10283783308219038 1.3947002437378566
0.3555146597048834 0.6523445148348507 0.27756513062154864 -1.4705730110905064 -0.3324108539288715 0.4077215536971652 -0.3244380553962571 -1.0690295743735279
0.32047751711694034 0.9797975075414608 0.04310300531032447 0.6777544765463394 -0.6343003880600809 0.3737438158760512 -1.3503046545602053 -0.5201045970451805
-0.4620083942772412 -0.06023676717419339 -0.1436577026250069 -0.7788985920273377 -0.19385753987517948 0.8387735409517222 0.20829683326825374 0.8500064833389949
-0.877338238998228 0.09140163032347512 0.17479442993177427 -0.3225223189889156 0.17585653769183818 0.27970771600627115 0.0819518411809456 -0.4116137514639881
0.4127120737082278 -0.200628351113396 -0.48688511729406186 -0.149506479103651 0.23991844751639568 0.19319399610707289 0.21610325695590615 -0.274710825422434
0.3242556360171574 0.047663418057035015 0.2830560627015171 -0.10941897032646453 0.5259943136756515 0.9931201451797445 -0.6674762371140628 0.26894885464209906
0.5195835406022183 -0.6975269251720122 -0.38018138062079054 -0.8481827871764529 0.2237026655568647 0.0005787607492915991 1.422876264758774 0.05485414043511596
-1.1445759412051926 0.15085906550732928 0.0992048248559401 0.8181029398420148 0.8603219063040901 0.7755571181933713 -0.32446591012628423 -0.5837978386540013
0.559015425715694 0.4211954782236477 -0.4283257748613737 -0.3783369224744828 -0.5442648920361458 0.29549468384059485 0.42728620602827416 0.8281250575270362
1.0405871134810318 0.05052590672480476 -0.27889688986940264 -0.09179588276628771 0.17504075759423005 -0.7106797659877638 1.0437987019242483 -0.343868774930071
0.7615190814646629 1.1374186698215152 -0.09865061460909837 -0.012897146888060037 -0.00613886571612836 -0.007619779913155768 0.016810220969927358 0.20725301007904984
0.8092463755824642 -0.611510172682196 0.015778115326517503 -0.0008885297990634364 -0.000763979674573874 0.01879366589494925 0.006170032158777492 -0.0024127505244844107
-0.0029626052398282676 -0.010719594532578295 0.03613974444527529 -0.0075128554646632355 0.06718746724745867 0.12694550968856277 -0.058404278766921676 0.03767008940626951
-0.030781958525860895 -0.4253384740446012 0.2753070868150744 0.12202274334498707 -0.2542721097038452 0.24959833006030988 0.2580588503950351 0.2587162584565578
-0.001438144223265581 0.14947455078354877 0.12704192672552067 0.021349593416624943 0.13278890244587152 -0.18800381201719837 0.04512808414167499 0.0020658033900648656
-0.12077024379245133 -0.0026082052965841155 -0.1266618669118643 -0.006100967890158196 -0.1112906903138037 -0.3116086478780194 0.09760677539600812 -0.15640002302125822
-0.010282985184549176 -0.14553764813432954 0.7785709189118151 -0.17695874842760662 0.29190628193112556 -0.11089600488548645 -1.13866906994847 -0.2999479659811232
0.32899781261687977 -1.320871088905271 -1.578868856454603 0.08498286825663584 -0.03756541359062169 0.675972379742363 -1.1020333063734213 0.08719014662353712
-0.22504310840028524 0.13796478735987766 -0.1363297108495888 0.423875076866275 0.21867210151171543 -1.08853988855046 1.3551913499481365 -0.2161374435104359
0.3617341124727804 0.615304753547765 -0.6651899692878634 -0.32505074627283226 0.008436902963885667 -0.006549097185557602 -0.002728860872443621 0.008242704219345512
-0.0015896371824305141 -0.01155407951907564 -0.00445165261517278 0.006533188098026386 -0.16333683416961994 0.31093867794266966 -0.21507893902102415 -0.015078658826351354
-0.25331103746732425 -0.35047156060020146 -0.06632576939416686 -0.3659529417202397 -0.6602293490858473 0.17915940622006202 1.2938246108309128 0.43149890606227237
0.42850878674457454 -0.6081068791431301 -0.024470150505284748 -0.7639684809567799 0.8717335827032693 -1.594446318683536 -0.058609925997382704 -0.38271480896302035
0.5394022591720348 -0.08915998146729129 -0.49447008948306137 0.3197284668450708 0.16939407473768314 -0.06257192555742731 0.2692244693387495 -0.21932718310152544
-0.31375464694158633 0.8477032722164528 0.27019557234489294 0.07161641357957557 -0.9254845539985447 -0.36940828029417083 -0.3187159605868673 -0.1343623498000951
0.29250716942799626 -0.27115623416236057 -0.7101476319583341 -0.5304391080144073 -0.2591399034118514 0.027508649645860285 -0.0427273758382385 -0.4707309212718151

W_f f8 [128, 217]
00000000: 0c72 1eb7 0017 cb3f 04bf 51fb e678 df3f
00000010: ea55 c72a 4c6a d03f 3131 bd82 c1d7 cbbf
00000020: 97cd 5777 db92 dfbf accb 229d 02b5 d03f
00000030: 5406 32de 37c7 e7bf e041 8c2d 03c7 bf3f
00000040: 9b80 8d33 48b7 b93f e6b0 4d76 e0e2 e03f
00000050: 790c c602 fddc e93f af94 535b 47dc cd3f
00000060: 33ea f36f e09b c53f ebe2 bff8 1e94 bcbf
00000070: 021c 8080 1bd6 e43f 33da e35e 6698 c83f
00000080: a2e2 756e 8036 dc3f 3e87 6cc7 0822 c3bf
00000090: fba7 8670 7909 e1bf 4ddf 3355 f279 dfbf
000000a0: d90b bf2a a4f6 ed3f fa79 0694 83ec debf
000000b0: 48d0 8b57 fcfd fabf 211c 8fe8 0178 c4bf
000000c0: 141f a026 f143 dc3f f5be 4075 8220 ccbf
000000d0: a82f 9a88 f4dd a43f f6bd 4545 3f02 be3f
000000e0: 05ec c238 ec00 e5bf 11ce 131c c7cd cdbf
000000f0: 5350 118c 39ca e83f f03c 031f 6879 e0bf
00000100: 8aaa 73d0 538d c6bf dcc6 45c9 a2b1 d6bf
00000110: eeb4 6690 1436 c9bf a4bf 9904 4c6d dabf
00000120: ba07 51fd 1cb5 74bf 75c2 85af f7d5 dcbf
00000130: 3d67 4072 ebd5 ab3f 7c3c be0f 71bd e7bf
00000140: 4260 e9fe ee8e de3f 3e73 25f0 2084 b63f
00000150: bfaa e54e a1eb dcbf 1a67 80d3 69d4 cdbf
00000160: 3dbc 0d08 7b0c c33f 557f 96fc 642d aebf
00000170: 886d c4da a387 e43f 73fe 8262 ea94 e1bf
00000180: 770f b4dd 2cca bfbf 2a32 4c89 bc56 ce3f
00000190: f4ac 4046 d705 afbf 4eaa c93c d1f7 bebf
000001a0: 7576 88fc 553d a93f 9902 f196 50ce d1bf
000001b0: 8ae4 6f4f f15b bc3f 3649 bad1 902c e93f
000001c0: a465 ee8a 7d9d f0bf b342 de95 c3a9 d9bf
000001d0: cc3c 52ba a097 dbbf dcaf db96 cf8a c53f
000001e0: 2933 f75a b72b bd3f 0b6f a613 fc34 c9bf
000001f0: 646b 4c0f c8be de3f 3264 e073 3f13 b13f
00000200: 16ed dfdf 4a08 c53f 1228 fbc8 4763 a9bf
00000210: 32c9 61ee c0ef c9bf 332b 9aba 1c0c b23f
00000220: bae4 06a4 69a4 b33f 602e a735 fc55 e23f
00000230: 40c7 16da 0d6b 94bf d2d7 b956 748c ccbf
00000240: 4ce0 af0d 4288 843f f59e 5762 c9d1 e4bf
00000250: 7a46 7cd9 9e38 e03f 3b94 6309 4b93 edbf
00000260: a5aa 8a09 23f0 9d3f 0222 a566 5d56 b53f
00000270: 8476 4163 09ec dd3f 0faf c744 9717 c5bf
00000280: 7ccf 9aca a84a a73f 8dba 368d a616 cd3f
00000290: cfe2 4ed8 f13e cfbf fe73 4ea3 6833 e33f
000002a0: b8dc 5b39 10cb b13f e8ce a829 ce6a cabf
000002b0: d39c 7c6f 7388 a4bf 9ff3 2465 5f5a e03f
000002c0: d90b 1fce d0e0 d53f 7a39 d453 b7a3 c93f
000002d0: efa5 8809 7bdc bd3f 968b 1fca 6896 c03f
000002e0: 88a8 13bf 5ef8 b03f 5041 f719 f7f9 c1bf
000002f0: 8e4f 037b 32a2 dcbf ef37 9c59 746e d1bf
00000300: 260d c578 cf40 adbf 155c e2e7 8302 73bf
00000310: 88d7 1d4c e673 c7bf 8449 1faa a73b bfbf
00000320: 2997 75be 3688 e0bf 130a 0cac 433b d43f
00000330: 02d0 d263 20c6 d8bf 71be c585 90e2 d43f
00000340: 1b82 a9c6 1285 9bbf 03d8 10c2 cd9a c33f
00000350: 6429 88cf 3bfa cb3f 9d97 ae3b 74a0 e3bf
00000360: 98ee 5d26 6a53 b0bf 039d eb26 be26 e7bf
00000370: cf63 6fa8 6030 e23f ddf8 09b9 f7ee d6bf
00000380: a832 6047 6cc3 d23f 4b88 c28d 6da2 d2bf
00000390: d783 0dcc db32 d4bf 07f5 5d50 f2a3 e5bf
000003a0: ebb5 1dee 716f ddbf 08b7 faef fb98 efbf
000003b0: b74c 49bd aa68 7e3f 97e7 d835 46c4 b0bf
000003c0: bbb4 9faa 1a0f bbbf 8bfd 2982 ea0d d83f
000003d0: da5a 61d1 9d33 e0bf a3f0 e2ef a408 e93f
000003e0: 1add 550e 0637 e03f f96d 8b09 7616 dc3f
000003f0: 6cf0 3a8b b6b5 c53f 2485 9c2b 8693 df3f
00000400: 2e18 8221 f0f2 be3f 130a fa33 2822 b4bf
00000410: 4508 a2a0 2f0d 7c3f 53fb 1946 919b 32bf
00000420: 096b 392b bd54 8c3f 982c 0e69 bdb3 723f
00000430: 56e3 4bb8 1323 753f c905 49a8 37b3 c83f
00000440: 6598 a67f 0cc3 bbbf 3442 797d 7482 c4bf
00000450: 8ac1 a031 7f93 383f da1e 53ec 44e5 8bbf
00000460: 9c51 d207 4943 7abf 9930 434e 276a 113f
00000470: 534c f566 648e 82bf 2e96 fc0b f3ae 893f
00000480: bd96 ad0b cd3c 74bf a405 970b 381d 5cbf
00000490: dbf8 5246 ddea 9bbf 1f62 6fa5 e542 6d3f
000004a0: 3623 42bd 84d6 7e3f 5050 fea3 6909 b43f
000004b0: 495d 1738 9a27 96bf f339 119c e1ef b8bf
000004c0: 1952 4b84 01b9 b13f 8192 7bef 4495 86bf
000004d0: 9f68 27d6 fd27 b03f 1889 7eb5 531a b73f
000004e0: 7bf7 9e2f 890e c0bf bd39 887e eda0 b93f
000004f0: 2885 7688 37d6 023f 9473 b55c 2cf7 b83f
00000500: 68da 1d3a 44d7 6dbf 18f2 8847 ae96 6a3f
00000510: 92f7 2e0b 97f0 883f e3c3 d9c0 2c00 7ebf
00000520: f2c3 292c da46 a93f 1687 6bea 24b3 b3bf
00000530: ac6f 9a19 51c9 793f 6eab 722d c168 a03f
00000540: 48b3 40ce f3b6 92bf 5d52 b8a4 2ec0 c0bf
00000550: b936 d0e5 7617 abbf 075f 2f8f 70d0 6ebf
00000560: 6580 9d64 19e5 903f 99ba 1a21 3a86 a2bf
00000570: c06a 8557 603f 943f d076 8e80 90a2 a1bf
00000580: 7ee5 ede6 73a6 763f 7f86 1e7e 1929 863f
00000590: 4514 12f2 cd8c cabf bec9 b69d a50d c53f
000005a0: a7e2 dd52 448e abbf e65a 53e8 af03 e1bf
000005b0: 5f6b b06d aab7 c1bf ae66 8284 3bbb 8dbf
000005c0: c728 7223 e353 c33f 9590 e806 55c9 e23f
000005d0: 4a77 444c 19d3 e1bf 5a7f b247 3dd7 a0bf
000005e0: 3a78 640a 41ab b3bf fb06 2dd3 952b eabf
000005f0: 8159 3791 d664 d8bf 21fc 243b d8ea dbbf
00000600: e7b6 4798 8fd3 d5bf 9369 d2b2 80a6 e5bf
00000610: fd50 63f6 4ac3 c53f fd0b 944f b7cf f53f
00000620: fcf6 79e8 1f0d 85bf a48a 9dc5 1500 c63f
00000630: 535e ca03 8b4f d1bf 1af2 5f76 dbf0 923f
00000640: db16 02b4 5514 e63f 27a7 c6fe 65d1 9e3f
00000650: 1a98 d2d7 bc34 c03f a244 fec7 d38f a9bf
00000660: 8fee e51e 482a 833f 85b2 8312 763d 8c3f
00000670: 63e7 a2b6 766a 733f 66d5 115b 6b8d 80bf
00000680: 122c d270 1c6e 9b3f 17a1 78c8 8c8b 733f
00000690: f00f 9139 628f 8e3f b0f1 a3b6 f085 80bf
000006a0: b90b c5ff f63b 81bf a98e fbc4 67bf ad3f
000006b0: 9fcd ac98 c96b b2bf ea43 fc5c 3ef8 b7bf
000006c0: 6ac0 4a22 5438 b33f 648e 2331 139e ecbf
000006d0: 9560 5dc6 dc28 fcbf aa12 1eeb fd44 f0bf
000006e0: 3b78 0cd0 9d8e eabf 7506 3c96 2302 e9bf
000006f0: 3962 8889 dd1a ddbf 1cec 4145 c010 d9bf
00000700: 0f95 6972 2579 fabf 9966 4566 48ac d2bf
00000710: 16e3 7cbc 39f7 e1bf 6d40 805a 7bd2 e1bf
00000720: c85b 32aa 6106 e3bf 6ac1 6b9a 71de f0bf
00000730: 5188 58cb f118 e73f e7cc 45b3 3355 d5bf
00000740: e51b 9c9e 4d41 d73f f5d7 fc79 65c4 d3bf
00000750: 5ccb f907 5f34 d6bf 896f 2a30 f0cd c23f
00000760: 2391 1dd5 2622 c93f 8cbf 64a4 3ec7 dcbf
00000770: 00df 8241 4333 f1bf ab87 572b 3604 e0bf
00000780: dcf1 5422 352c d53f a241 5aaa 0681 d03f
00000790: a5b5 c779 85cb ad3f 1f8f d768 289e c33f
000007a0: b6aa 2919 ee87 d73f 8fa0 aa08 4cc8 933f
000007b0: 4b28 c4b0 804b e33f 92a6 7bac 388d e7bf
000007c0: 2a8a b8ad b0ec d5bf 5f25 e1b0 5332 ba3f
000007d0: feeb 0cdd f2b8 dc3f 7181 f9a7 b440 c63f
000007e0: e1a1 1051 3ae9 c9bf b8c9 4e14 b8d9 da3f
000007f0: 2573 0244 1655 e43f 448d f543 3a9e e0bf
0.2116394895682706 0.49175428908255037 0.25648788621523855 -0.21752184756986417 -0.4933384576281354 0.26104798646263805 -0.743068632102402 0.12413043844231408
0.1004529119359198 0.5276949225058416 0.8082261137173098 0.23328487357426783 0.16881947962231578 -0.11163514683711255 0.6511361608289692 0.19215087540915618
0.4408265188899724 -0.1494761441945744 -0.5324065397046519 -0.49181803055352163 0.9363575777900862 -0.4831856675681646 -1.687008230187546 -0.15991233687802356
0.44164685031908957 -0.21974211430778437 0.04075588386066836 0.11722178879949027 -0.6563626392957082 -0.23284233923878664 0.7746856437393127 -0.5148201566425126
-0.176187969954601 -0.35459203391574845 -0.1969629006465889 -0.41292095612788615 -0.0050555355456384735 -0.4505595411383532 0.054366452881551265 -0.7418752009852052
0.4774739732142771 0.08795362341829802 -0.45188172058866977 -0.23304484202599768 0.14881837743038942 -0.05894008239124441 0.6415576241301304 -0.5494281696373505
-0.12417869961433135 0.23702198699938154 -0.06059143765045319 -0.12096889242244765 0.049296080662526366 -0.2782174562490041 0.11077793301946506 0.7866901489490263
-1.0384498049737454 -0.40098657260481757 -0.43112962909158337 0.16829867235298834 0.11394830675926627 -0.1969294639537725 0.48039437765117143 0.06669994906441515
0.16431556636221306 -0.049585574420760406 -0.20262920036072668 0.07049731784551909 0.07672748808444654 0.5729962394629631 -0.019939629016966665 -0.22303632960000513
0.010025516550726497 -0.6506087227580496 0.5069116828692153 -0.9242301162127043 0.029236361939789863 0.08334907299025221 0.46753153508129963 -0.16478243692778746
0.0454914805717683 0.2272537412186079 -0.24410842000886254 0.6000254811839338 0.06950475120889876 -0.20638443979407062 -0.040103537902092555 0.511031816051048
0.3418466580298492 0.2003087195702838 0.11664551718481396 0.1295901286058238 0.06628982701264097 -0.14044083373893068 -0.44739973080617623 -0.2723666071987045
-0.05713508939018146 -0.004641070611021388 -0.18322447506551165 -0.12200401214002993 -0.5166276664647046 0.31611720849483155 -0.38709268329989766 0.3263284021731812
-0.026874822020888183 0.15316173530453633 0.21857402451889663 -0.6133366742767411 -0.06377280651752881 -0.7234793434298868 0.5684054651020406 -0.35833542890749276
0.2931776711491616 -0.2911638149618098 -0.31560416152029575 -0.6762630052250252 -0.45992706540604783 -0.9874248206230911 0.00742403693273557 -0.06549490751868202
-0.10569922128316282 0.37584936820345466 -0.5063008393725241 0.7823052106173417 0.5067167549122218 0.438870915718979 0.16960794256545186 0.49337915667463705
0.12089443986960255 -0.07864619511568831 0.0068485126922742156 -0.00028393074726545015 0.013833501702881461 0.004565944561259937 0.005160405188456027 0.1929692813592239
-0.10844495884393408 -0.16023117186206692 0.00037500243491008693 -0.01362089010434835 -0.006411824489209652 6.643166449577172e-05 -0.009060654060396944 0.012540720752052339
-0.004940796813434009 -0.0017159507100220428 -0.027263123910182024 0.00357193806437929 0.007528799546101797 0.07826862577195581 -0.021635446237124687 -0.09741029796825966
0.06922921638335601 -0.011026896055633674 0.0631102226101654 0.09024546795857125 -0.12544359994165774 0.10011181201136927 3.5928315863085266e-05 0.09752156508825599
-0.0036426861342378387 0.003245678319471656 0.012177639035026808 -0.007324385469119374 0.04936868466473489 -0.07695227358956588 0.006295506283688395 0.032049214170306026
-0.018276032890003152 -0.13086493533104973 -0.05291339450205385 -0.003761501161971273 0.016498944059435767 -0.0361803212557465 0.019773011533610996 -0.0344433934144327
0.005529835455371111 0.010820578729013207 -0.20742201156477527 0.16447897148971252 -0.05381978522831803 -0.5317000901803481 -0.138417533454084 -0.014517273885121664
0.15099753599890262 0.5870766768389496 -0.5570188989256419 -0.0328921461125435 -0.07683187965128094 -0.8178204655198152 -0.3811546724440618 -0.43620878005816804
-0.34103765364748856 -0.6765750401130383 0.17002236395513384 1.3632119282272008 -0.010278939516179524 0.1718775954169206 -0.270479921056425 0.01849692258837097
0.6899822726997756 0.030095666575710524 0.12660942590918084 -0.04992543999026934 0.009357989733636244 0.013789102973953202 0.004740203594502865 -0.008082236019826449
0.026787227998777814 0.0047717570628622785 0.014921920186800691 -0.008067970823042753 -0.00841515510604106 0.05810093192647276 -0.07195720651070879 -0.09363164682532923
0.07507825696188922 -0.8942962608093237 -1.7599761723159066 -1.0168437179828893 -0.8299092353297576 -0.7815111097590505 -0.4547647326558351 -0.3916474033682691
-1.6545767277942252 -0.29176530826007646 -0.5614288979914785 -0.5569435851666761 -0.5945289920954275 -1.0543075592105091 0.7217949840162509 -0.3333253145894574
0.3633607911037287 -0.3088620845113604 -0.3469464853180193 0.14690973617404904 0.19635472684888908 -0.44966093114907646 -1.0750153121024937 -0.5005141111871486
0.33082321503368717 0.2578751243209131 0.05819336997579264 0.15326409453620557 0.3676715131502236 0.01931875994583315 0.6029666378465292 -0.735988938218002
-0.3425714203350788 0.10233042782160372 0.44878837191544096 0.17384966089140222 -0.20243004759073727 0.4195385168378851 0.6353865936576751 -0.5193148925140254

W_c f8 [128, 217]
00000000: be4c ba46 9b3b f3bf 8784 78d3 69ad f7bf
00000010: de34 ec34 3ba2 c7bf bd18 d809 3f06 b6bf
00000020: 5bb3 9a7d 2229 bc3f c542 c6c6 6442 f0bf
00000030: 0b41 3461 2ae9 e43f 6d57 702a adbe e6bf
00000040: 8f87 a1bd 2d82 e0bf 664f 5e10 291a e4bf
00000050: 2667 7da3 c24f f3bf ad00 c0ab 8b08 e33f
00000060: 24b9 231b 9edd e73f 518b ae46 5109 c8bf
00000070: 81d1 5d86 7d67 e43f 2d9e 30e2 3b18 d23f
00000080: 6082 d047 1a7a e2bf 17ab 4e38 e924 e0bf
00000090: 7c3f 365f f3e2 b2bf 8e8f 5241 0c53 87bf
000000a0: 5390 5f60 30c0 b23f 9f87 b71a 15cc cdbf
000000b0: 49b7 ac35 701b a8bf 95ec 0acf f3a2 d3bf
000000c0: b0cd dcc3 47a6 ebbf f87a 0a2c 19ba d7bf
000000d0: bcd7 5f33 b2b5 a4bf 581e c122 9029 cd3f
000000e0: 8945 da45 1836 d9bf 197d 92a0 dd6e d13f
000000f0: 8e84 fb27 c848 d1bf cf63 9a24 d32e c03f
00000100: 0636 a5a4 1b62 dcbf 1f59 d156 2571 e93f
00000110: 888f 581f 8adc dbbf 6ea0 af16 2189 d1bf
00000120: ee77 9a53 70b6 cdbf 35be a0c2 6160 dbbf
00000130: 3bbf f46c adbe e23f 143c fc22 20c1 f0bf
00000140: 4576 2c29 ab4e e7bf cfd0 cd89 f282 fb3f
00000150: fbe6 e14d b66a d4bf 50f4 fd74 fcd8 e43f
00000160: b143 02d4 7c47 d03f 99ce 83ac 13ae f0bf
00000170: 7d40 ab28 f16f 95bf fc7c f555 7735 c3bf
00000180: a70a f15f 47c0 e83f 91b0 9807 902a c93f
00000190: 57fb 358f 7487 be3f 60ce 0b27 d944 df3f
000001a0: a22b a0c9 82a8 e53f b382 15bc 49b8 cc3f
000001b0: 8ba6 6014 3a3a dc3f f982 cdc8 20bc a13f
000001c0: ee86 cfee 743f cbbf b446 19e0 89aa d73f
000001d0: 0e71 8976 4652 d83f 91e4 bd4f 1272 cfbf
000001e0: 6fa8 a78d 6569 c63f bfcf 961c bcb4 d73f
000001f0: bb18 25e5 be0a bcbf 14f1 3727 3265 e4bf
00000200: 70aa 0320 4a3f a43f 6f83 3fb5 8460 b93f
00000210: 7285 3f3a 86a0 b8bf dfe2 13b7 443c e7bf
00000220: b5a9 f104 4475 ddbf 4346 c9f3 ef57 f3bf
00000230: 3f8e efb6 7706 e53f bc64 b80e a5e8 e0bf
00000240: db29 d4e0 cd3a d33f f453 af97 3b0d e23f
00000250: a7df 2dbd 78a5 debf d4bf 9a9f 5db0 b6bf
00000260: f345 aad0 1d4d c63f c3ac 5a75 5c05 d23f
00000270: 66b6 ffd0 c9f1 b53f cd19 2441 cce4 e4bf
00000280: a094 383a 2d9a efbf 762b 012a e494 c23f
00000290: e1be 051e 509f a2bf 4ecb f078 1474 acbf
000002a0: b5a5 310b 9af3 f03f c0bf 874c 280b cbbf
000002b0: 1d29 3f06 c732 e83f d8ec aa0c 1bf7 d23f
000002c0: 9420 b354 0745 a6bf 0ced 5140 39be 993f
000002d0: eace 23a8 0ecd abbf 60b4 4754 3935 e7bf
000002e0: de58 90b9 9b39 c13f 133c 430e b8b7 d53f
000002f0: 58e0 e8d5 b6f6 e2bf a7ad 14db 27d5 cf3f
00000300: b299 a774 43d5 d73f 0e4b 1517 410e b73f
00000310: 1c59 3ce1 77fc f03f 8134 e0d5 ffaa de3f
00000320: 9753 de06 fb06 dcbf cfba bb6b e68a e7bf
00000330: 5fec 51ac 1e90 eb3f 3607 d46b ff32 b0bf
00000340: f0e3 887d 3553 94bf 5eb0 5c23 309f d9bf
00000350: e34e 265f 3200 633f a640 32b1 1f65 e1bf
00000360: 8517 e556 436a e33f 155b 1a0a e7fd c1bf
00000370: c106 b69e 2718 c0bf 880d 582a 263a a23f
00000380: 0d82 2c54 9013 b43f f824 5063 ab20 e43f
00000390: 4220 3122 1672 da3f 2c89 2ee5 0d85 ba3f
000003a0: c04c 689f b373 d63f 2a0e 8210 da38 e4bf
000003b0: f126 2696 6923 d6bf 7c79 bb40 08c3 abbf
000003c0: b71d da93 992c e8bf 6f1c bc4e 2f92 98bf
000003d0: 425d f8b3 96ce 7ebf 111e 9ae3 b2e1 b63f
000003e0: bfe7 2a9b f7f8 b7bf 2a50 df91 5df3 e73f
000003f0: 65f6 d70e a330 d6bf 0015 6404 3b04 e63f
00000400: f1dd e50f 1bf4 e4bf 482e 8c24 4de2 de3f
00000410: 2425 f818 c7d2 bfbf c870 8662 25a2 97bf
00000420: 7546 b6c5 7e93 9ebf 5046 f8b8 6b64 a23f
00000430: 308e 7063 fbe0 afbf b7d8 0f68 112b e2bf
00000440: d734 2835 d428 e4bf db0d dc9e 1c13 b9bf
00000450: 27fa ddf3 c313 743f 6426 8a90 aee9 683f
00000460: 5c5b b0c4 559f 66bf fef9 4d5b 66cd 753f
00000470: 9b9d 6c71 dadd 80bf dd40 223e d522 71bf
00000480: b216 b7ca 36cb 8c3f c0e0 a9bd e78f 733f
00000490: 188a 3d74 3916 ba3f c3d3 fa25 7c9d 61bf
000004a0: edeb f061 6db3 9abf ebff d2e6 264d c0bf
000004b0: 84fd f560 8be5 96bf e5c8 5d00 bed9 eb3f
000004c0: 92c7 c143 41fa d0bf 157e 1c41 2c00 d43f
000004d0: e374 376f 7d00 b43f bbd2 be7d a511 94bf
000004e0: 54b2 3aab 5b22 d43f aea3 e1e5 b67a b3bf
000004f0: c72c 2e93 5318 d0bf e883 5e28 21ac e0bf
00000500: 1269 1255 9725 b73f 6260 528b b229 aebf
00000510: ed4e b281 3d3c c1bf 0475 e0a4 c6d5 d53f
00000520: 005f 3b60 4710 c1bf e697 3c08 d100 b8bf
00000530: bf4c e9be 815d d23f ab9b aab6 4037 a9bf
00000540: c267 b47e deb1 a73f 7800 0bc7 9e98 c9bf
00000550: 33c6 dcec 9ecf e1bf c191 057c c36a 8f3f
00000560: e8c8 a18a 7a3b ba3f fef9 e37a 1bf8 9abf
00000570: 9f7f 7e0f 39ff a7bf 865c bdd4 d240 d23f
00000580: 45ec d4d1 766e 403f 08f3 07bf 99a0 c0bf
00000590: 1f47 b195 c8cb 0940 f8b0 c41e 021b e63f
000005a0: 7906 3763 eb7a bebf 4d50 6b95 34ee cebf
000005b0: d9ac ad61 f076 f6bf 8506 f668 a8e3 e83f
000005c0: 33a5 124a 35ae f3bf 317c ad9d 7fc7 d2bf
000005d0: 805a 6724 19ba c23f e895 aa51 ccd2 a03f
000005e0: 390c 8b99 d745 d0bf 7f26 d419 2dfa d7bf
000005f0: 7d0f d914 78d6 fbbf a6f2 b26a 3208 f0bf
00000600: ba59 6d8d f1cd fa3f f880 78ce 3171 d33f
00000610: 8ccd dcfd 4517 cf3f 573d 0e5c d026 f23f
00000620: 453c d5ce 33ed d3bf 071e 70a7 6cbd fbbf
00000630: 353c 91bc b019 eabf 95d0 bb8c 6e43 fb3f
00000640: 6b8a 6f14 a22f c03f 787c 6767 f2bb e5bf
00000650: 780d d525 db59 f93f a2d3 918d 9b4d c63f
00000660: 5356 aa6c 02a4 86bf 8330 feed 3574 563f
00000670: 060b 2c0d c8cb 603f 037e 427d e88e 503f
00000680: 7508 cbb6 171d 6cbf be79 4a42 07bb 90bf
00000690: eea0 6dd4 13bd 623f 37dd 3ba8 b4af 69bf
000006a0: 6de5 ee46 d7d7 433f 80d3 daa3 8bbf d0bf
000006b0: f07a 10b1 8b53 c3bf 3dd1 13bf ea28 c53f
000006c0: e83e 8a21 4ff9 ebbf 9e84 b09f 892b a3bf
000006d0: e9ca 6748 c1cf ecbf e85e 16ca 4510 d83f
000006e0: f3cb ed1d bba5 cb3f f7f9 9ffb 2561 e8bf
000006f0: 9fae e447 f8af eb3f c445 6b8d 0161 af3f
00000700: 8841 a38c 026d e43f 81d4 2add 1936 dc3f
00000710: a273 7639 8a29 cc3f 047a 2bc6 65e9 d2bf
00000720: 8bfe 80a8 2b0d d03f c4ab b0c6 fd3a e73f
00000730: 0855 ff08 d715 e43f 0bd7 17f7 89e3 d0bf
00000740: 7547 fd31 8642 c83f 4fa4 9a39 809c d2bf
00000750: 595e de6b 5089 d7bf fe3c 08d7 af38 cdbf
00000760: 85e2 968e 25e8 ac3f bdb0 4e39 ec88 9b3f
00000770: f409 55d2 72a8 d33f ddc1 d3d4 04c8 d13f
00000780: ba25 90a8 f38c e73f 44b7 01e4 f261 e33f
00000790: 9826 55a7 eb50 ddbf 57e3 379f d9ed d2bf
000007a0: 336b aa68 0bc9 b9bf 7fdc b11f 0216 e1bf
000007b0: dd43 a2a4 fa4c bfbf 8975 1daf 2266 ddbf
000007c0: add5 fd9e 8417 c4bf afdc 5bd6 e6ee b9bf
000007d0: e77d 0d1d d59a dcbf 233b bb8d 34bb ae3f
000007e0: d4e5 4df9 1913 c63f 6e9f cbd7 eb53 bebf
000007f0: d960 cee1 127e c0bf 76b1 aa74 d128 d93f
-1.2020523798753824 -1.4798372517182388 -0.18463840564837758 -0.08603281011901039 0.1100026661540147 -1.0162093891741943 0.6534625910299224 -0.7107759312518575
-0.5158909515123343 -0.6281934089370054 -1.2069727312395542 0.5947931627743138 0.7458029298848357 -0.18778434706936278 0.6376330971093439 0.28272912110193965
-0.5774051096560235 -0.504505739188377 -0.07377549242505482 -0.011388869994625652 0.07324507096160575 -0.23279060177361274 -0.04708433776100535 -0.30682082385073645
-0.8640478921355932 -0.3707335405432981 -0.04044873120430689 0.22783090302458464 -0.3939266855387236 0.27239170723801603 -0.2700672522024171 0.1264289787984851
-0.4434880359520722 0.7950617499980445 -0.43533566533209767 -0.2739947053473831 -0.23213008959004305 -0.42775768286353194 0.585776055149814 -1.0471497885334928
-0.7283531002210074 1.7194695837943532 -0.3190131912775624 0.6514875683784656 0.2543632574461823 -1.0424992312299877 -0.020934837443576704 -0.15006915757383144
0.7734715341433301 0.1966114079563153 0.11925438400610965 0.488577163821196 0.6768201768876347 0.22437402423658667 0.44105388631815207 0.03463842822271163
-0.2128740469043388 0.36978384861604785 0.3800216825091106 -0.24566868680611667 0.17509145180457916 0.37040617744355225 -0.10953896612508889 -0.6373530164706005
0.03954536095428274 0.09912900376322197 -0.0961994068343495 -0.7261069846855114 -0.4602823303490838 -1.2089690707110925 0.6570395062412401 -0.5283990180497748
0.30046412425931884 0.5641153299899302 -0.4788495871975961 -0.08862862726778015 0.17422840775229495 0.28157721958514176 0.08572064735900539 -0.6529294273648759
-0.9875703942422156 0.14516880084041944 -0.036371711411332226 -0.05557311989141188 1.059473079420383 -0.2112779973681409 0.7561984178549072 0.2963321326930788
-0.043495396699257644 0.025139708090574905 -0.054298837685477455 -0.7252470632644297 0.13457056580290944 0.339338315895419 -0.5926164796756082 0.24869249532035306
0.37239157096919506 0.09006125272325624 1.0616377638121497 0.47918697248753267 -0.4379260603976091 -0.7357055763403312 0.8613427510857824 -0.06327816374326009
-0.019848666941673032 -0.40034106686903737 0.002319429762062218 -0.543594213568231 0.6067215630689452 -0.140560989316065 -0.12573714494287994 0.03559989230054855
0.07842351965928902 0.6289879741390498 0.41321328486492714 0.10359274716623607 0.350811868354139 -0.6319399187490877 -0.34591140425673844 -0.054222352888007
-0.7554443252310453 -0.023995150738326417 -0.007521237071635158 0.08938139015855763 -0.09364268816253139 0.7484577035015765 -0.3467185635525765 0.6880164228211072
-0.654798060465451 0.48256233758067824 -0.12430996284105739 -0.023079475534914434 -0.029859524552711087 0.03592239983494194 -0.06226335133422045 -0.5677573234995837
-0.6299840009902721 -0.09794787290962097 0.00490166229235326 0.003041115709781649 -0.0027615237390920377 0.005322837668130463 -0.008235651575502703 -0.004183609942757208
0.014059475003601694 0.004775910604273459 0.10190161788845165 -0.0021502899906757646 -0.02607508573803934 -0.1273544909545302 -0.022360017579101235 0.8703298575549324
-0.2652743493737201 0.31251055105710296 0.07813247647523584 -0.01959856586445839 0.31459705087289547 -0.07609122383440933 -0.25148476956446725 -0.5210119045697157
0.09041734530402248 -0.05891187620835649 -0.13465088684880958 0.3411728487133845 -0.13330928992103708 -0.09376245928851254 0.28695720332798297 -0.049249670313023707
0.0462789086979707 -0.1999700996293574 -0.5565943361490951 0.015340354177802664 0.10247007259912133 -0.026337079406397727 -0.04686907114159954 0.28520651603089
0.000501449601564182 -0.1299011404770669 3.224503678772535 0.6907969094222883 -0.11906310245742614 -0.2416444520555409 -1.404037839466403 0.7777902650852445
-1.2300312894315766 -0.2934264221020753 0.14630426671529406 0.032858262032543994 -0.2542628287739635 -0.3746445419534225 -1.7398606123324207 -1.0020012062006258
1.6752791904924451 0.30378384745746656 0.24289774795179786 1.1344760509417335 -0.3113526840069805 -1.733746198706173 -0.8156360323863568 1.7039628503235111
0.12645364759289932 -0.6791927356351968 1.5844375112363576 0.1742433968790041 -0.011055010739521231 0.0013704802185854632 0.0020502955679843086 0.001010634460761995
-0.0034318411984211547 -0.016338456555439633 0.0022874247837770733 -0.0031355408153747283 0.0006055642278319069 -0.26169100762790976 -0.15098711152764777 0.16531118707610828
-0.874183240421158 -0.037441540473318144 -0.9003607191246746 0.3759932015905023 0.21599520646449796 -0.7618589319752677 0.8652306942144213 0.06128697253519591
0.6383068796949809 0.4408020648800815 0.22001769834323875 -0.29549545624277607 0.25080386596162246 0.7259510880152154 0.6276660133104608 -0.2638878739374923
0.18953015747916493 -0.29080205560109545 -0.36775599035306566 -0.22829244613283345 0.056458638816768526 0.026889506337895542 0.3071562818551279 0.2778331831350707
0.7359560291526386 0.6057066396003639 -0.4580639967067355 -0.29576721714652393 -0.10072394662203692 -0.5339365595854274 -0.12226835746174865 -0.45935885525781167
-0.15696771395930167 -0.10130160077447913 -0.4469502242772862 0.06002201299781109 0.17245793030796952 -0.11846803682749193 -0.12884746576015152 0.39311634438742915

W_o f8 [128, 217]
00000000: 189c 5326 8c65 ea3f e427 e100 6d2c f53f
00000010: 858c 46fd 63e2 c63f da46 85ed f5fa c5bf
00000020: 4fa7 595d 8a7a d23f 3968 ddff 145e c43f
00000030: 88be bc88 02c2 cb3f 3508 7301 13b6 e13f
00000040: 99b1 b351 0ee8 dd3f 5e16 515c 400e e43f
00000050: 0c9b b1e5 cfe1 c93f ae47 3cb1 35d8 d43f
00000060: 7584 79fe 51a0 e4bf 7c24 96c7 eb15 ccbf
00000070: 940a d5f8 7296 ecbf f4c0 3936 d19b 953f
00000080: efe7 a9af e45b e63f 9f77 8672 447c b2bf
00000090: 059f 8e6e 50a2 873f d5c3 c6bd b50b dd3f
000000a0: 87b9 e0b6 3323 cbbf 2c2f 05b6 d84b af3f
000000b0: 0e4f ca65 8052 ef3f 1740 a85a b876 d73f
000000c0: 9158 d3fa 14ce d03f 9ff2 2063 d49c e13f
000000d0: 5f8d 7c5a 7755 c93f 7954 b893 d0c4 edbf
000000e0: 492f f112 cf54 85bf 5fff b329 c5cf e03f
000000f0: d9d4 75e5 b775 e23f d700 57a0 6a2e c73f
00000100: 7bbf 8d61 602b ccbf 60b7 7882 fa5d b8bf
00000110: 86d4 c52b f738 efbf d0d5 7e1c f954 d73f
00000120: 00de aa17 a1f7 d6bf 787e 44e8 23e8 d4bf
00000130: 90bc 0ad0 91ff ba3f 3f10 ba64 bae4 e4bf
00000140: 78a1 cf7c b816 b6bf be5d daa3 2f7e d3bf
00000150: 64fd 14ce 4269 c7bf ad45 0633 198b c2bf
00000160: 2100 744c 86ee c1bf 96f0 2f5a 877c e13f
00000170: 07e8 e603 7d90 d03f 047f 9d15 241d c1bf
00000180: f5e8 7667 2172 d53f f1d8 77a3 1f02 a53f
00000190: 776c 42ff 6c08 a93f 2d73 54c9 7ec4 e9bf
000001a0: fdf1 c7e4 5c56 a43f c70e 04f3 48c0 ec3f
000001b0: ae25 f729 2623 debf f514 e7b7 cc34 d8bf
000001c0: 8501 2dd0 9533 dbbf 3a6a 6981 5079 e53f
000001d0: 82eb 3897 55a8 d6bf c890 0014 8c01 e3bf
000001e0: 9164 7943 15d0 d63f edbf b305 219b cebf
000001f0: 1f9a 6dab e548 edbf d77f 914b 9927 b3bf
00000200: 98a1 1ee7 baf4 d5bf b616 c8cc 0ff0 dfbf
00000210: 5605 0534 5ec8 b6bf a41c 7644 a955 e33f
00000220: d4e4 17c3 1a60 eebf b5ee d7cd 7713 c33f
00000230: 3eff 40e9 9215 8bbf aa9c cb19 3a3e ecbf
00000240: 07fa 9cb3 97b4 e53f f6e9 81ad 6a71 dc3f
00000250: 6987 04bf a960 c13f 116f 3dd5 50a1 5cbf
00000260: cd66 b211 bedf c83f 1367 1b32 5635 e33f
00000270: f22b 9555 81ea e8bf 8194 07e6 40ff 82bf
00000280: 8afb c86c 95d7 e53f db20 98b0 f3a4 b93f
00000290: 887d 92d5 b0f3 d83f 7d06 bceb d9e7 e6bf
000002a0: 3cc6 c11a 00ce c3bf 8b3e cbfc 9bae eabf
000002b0: ad0f 0e66 b543 d8bf 751f c63b 8f12 dd3f
000002c0: 4897 f249 5343 993f 8080 0ec1 65cc a33f
000002d0: 4548 76a2 f534 c53f ef8a 26b8 c335 bb3f
000002e0: 2638 757d 64bc a3bf 3f9d f146 345a d33f
000002f0: f0fa dbb6 e56e b83f 8f9e 2b72 9627 bcbf
00000300: fa4d dd4d 1bb0 ac3f 5d1b 33e8 a8f2 e53f
00000310: 1555 d865 ad5f e4bf 19bf c231 0cd3 f13f
00000320: c7d0 86c0 f4c2 e43f 759b 3f50 7632 d73f
00000330: d638 9bc6 0b18 dd3f 5831 182c 5e11 d5bf
00000340: 3fc4 2737 6b62 ed3f 38fb 98b8 c8c7 e2bf
00000350: e64c d37d 83c8 ab3f fba3 db23 e7ff ce3f
00000360: b0f9 e49b 43dd d03f a84c ad8c 3ea2 ecbf
00000370: 1cba 2cbe 2795 bcbf e3f1 7018 08ef c2bf
00000380: 9770 f0d7 e90a e9bf 6323 ae75 31e0 dabf
00000390: f033 c9c1 7ab7 e23f 9455 cfaa fc83 e43f
000003a0: c6d1 9109 e2ba d53f ae9b 53b7 140f 973f
000003b0: 9f7f fe53 c153 d0bf 116c c03a 138c d43f
000003c0: 35c8 311c 1a1e da3f 5318 6534 39bf e4bf
000003d0: bedb 91d0 d3b4 d1bf 5063 fef3 3d4f e8bf
000003e0: 371f 08a8 2ba4 f1bf 8668 c92e 3183 e6bf
000003f0: 0d53 4c15 72ec da3f 164a 6f5f 2983 dfbf
00000400: cf12 c968 b495 e53f 15f7 d629 c97f d5bf
00000410: 1970 65e1 bf36 a4bf 3cf9 5ff3 4e03 89bf
00000420: 1286 ed2c 5989 a23f 9524 f31c 5213 863f
00000430: 15d6 4d9b 15d0 8a3f 6c2a 00c0 6388 d73f
00000440: 25fa cf74 9f07 c03f 7e38 facf 665d cbbf
00000450: 694c 9c4b 3a6c 753f 67ad 9671 2e3c 9e3f
00000460: 5aac 2443 da81 823f 2165 4f9a fdb3 82bf
00000470: 702b 34f1 b7ea 78bf 6e51 8162 cbab 32bf
00000480: 37cf 18bb bbf8 773f 67de 42c4 9650 6dbf
00000490: d71f b3c9 b8cb 99bf 6859 2cca 6835 8fbf
000004a0: 5a63 df96 925c 913f a6d5 9844 5b7b 85bf
000004b0: 37bf 4afd b052 843f 77ab c89f 4aa5 cebf
000004c0: aab5 324f 9230 bfbf bf92 6296 dd8d e6bf
000004d0: 404e a3de 78a7 d53f 850d 9003 1948 8f3f
000004e0: 8776 af50 b0e8 babf 58ef e53b 488c e43f
000004f0: d7ad f511 3d56 b43f e959 5d86 2c74 e43f
00000500: 7ec4 519a 16f3 b4bf 6c7c 089d ea2e d23f
00000510: 21e0 6ebe 85e7 d13f 75a5 cce0 a7fa acbf
00000520: ab13 4bd0 085a bb3f 7638 d397 2e4e c2bf
00000530: cb9b 34db 80a0 b43f 862f d12f b102 af3f
00000540: b0ee 22ed 8581 c5bf 562e 59bb e610 b5bf
00000550: 6de1 54bc 76c1 9d3f eccc 1e09 43ea 913f
00000560: d0b2 711e 79b1 cebf 4d86 eab9 921d c3bf
00000570: d514 e15d 93f6 c13f a73b 390b 90ef b4bf
00000580: e333 dce3 f6b5 80bf 8308 1570 4dd1 ccbf
00000590: c8a2 1741 0868 e8bf ee57 88f6 077b d6bf
000005a0: 7e18 411d b690 b83f 74ca cc56 fb68 e6bf
000005b0: 08de 2fe4 08f0 d53f e91d 88a9 e0b3 acbf
000005c0: 1508 c7e1 17db e93f 8b97 2f64 1aba d4bf
000005d0: f91d c9d2 56cf 9fbf 6690 0ef7 6992 ca3f
000005e0: da8b 02ea aad0 a7bf 0f05 a503 1ae1 b03f
000005f0: e615 3ea7 a05e d3bf 5750 74b8 2b82 e3bf
00000600: 86a0 114a 78b9 e33f 55d1 60bc 0637 f2bf
00000610: 921a 55ee 71da 99bf fd59 254a 92d2 dd3f
00000620: d533 338c d071 c4bf 6fed 518a cae5 cbbf
00000630: 73a5 e092 d358 fb3f 64ae 93c6 93ac ae3f
00000640: bb97 c4e8 3d2c d93f 8f46 a642 343a d43f
00000650: e020 64aa 5bb1 e0bf 3f8e 2cdc 1b42 cebf
00000660: b306 16e2 1b06 72bf 9397 9cb6 027f 8a3f
00000670: 3c46 66b3 8606 6a3f b42c 4d42 62e0 833f
00000680: b698 25d6 1f5d 5bbf cef9 fe93 5a66 833f
00000690: 1630 ef42 3690 91bf acca dd7a 5ded 93bf
000006a0: e318 c1e2 8d58 933f 65e0 2b92 253e da3f
000006b0: 5326 e363 5154 b23f 384e 777f 9e3e ddbf
000006c0: 1e2d 6fbe e1c0 d5bf 93fd 51bc cb3a eb3f
000006d0: 12da acc8 fe17 cc3f f3f5 58ad 6fbb cdbf
000006e0: 658b e98f 6f2c e0bf 5917 7c29 5770 dbbf
000006f0: 0042 58c3 c5bf e1bf 2441 d99d 4cd7 dbbf
00000700: 211c dae1 5750 d7bf 7e74 1729 c79b da3f
00000710: 37da 15f4 f0a9 d03f 7ece 0c13 7bf6 ed3f
00000720: d496 416b 9fdf cf3f 8b6d de1c 160e ef3f
00000730: 2523 3b63 2605 d0bf 03e4 fa14 46bc d23f
00000740: 4034 b393 17b1 e43f 5a48 2fb2 5ca5 e13f
00000750: 9d53 7748 b8d2 b2bf 8839 b957 0a84 c83f
00000760: 252b d6b1 dd39 cc3f 427c 6061 a98a bbbf
00000770: e025 493c 661b c03f a0eb 07e6 c5c3 c5bf
00000780: 887d 91ab 2cef ea3f 40da 36e4 2503 f63f
00000790: 257f b953 ace4 e73f 9f88 25cc d306 b63f
000007a0: fff7 5e5c 0601 e6bf c1f3 e839 e650 f13f
000007b0: 3617 b304 d032 a53f 7de7 f64a 2ed4 bf3f
000007c0: debc 277a d94a e83f f4dc 67fe 59ab e73f
000007d0: bd4a 458b 9be1 e8bf 6459 2d84 1498 e83f
000007e0: c344 ebb9 d54e 993f 74bc 82ef 2d9b d93f
000007f0: 5684 037b 615a e6bf 0802 968e a646 dabf
0.824895930153505 1.3233461412769367 0.17878389231654893 -0.17172121141134405 0.28872927776557317 0.15912115567590648 0.216858212248088 0.5534758594806194
0.467288570200958 0.626739673906467 0.2022037383605596 0.32569639499808545 -0.6445703478058379 -0.21941897626337326 -0.8933653697971118 0.021102208075206755
0.6987174445087002 -0.07220866962458537 0.011540058492598879 0.45383971722463673 -0.21201178006726826 0.061125538081425596 0.9788209903804004 0.3666211018871776
0.2625782441585978 0.5503942428691352 0.1979207221821566 -0.9302752385289202 -0.010415666356628288 0.5253625692857716 0.5768699151655269 0.1811040194425064
-0.2200737453781548 -0.09518399892178087 -0.9757037978112215 0.36456134588965217 -0.3588640910270158 -0.32666871721628565 0.10546218232296867 -0.6529209105797306
-0.08628418967385254 -0.304576787960709 -0.18289980948064077 -0.14486994735174843 -0.14009169323981133 0.5464512597532287 0.25881886845638785 -0.1337018113654197
0.33509097198442755 0.041031826691254276 0.048892408523180934 -0.8052362377380625 0.039721396376965125 0.8984722849276857 -0.47089532945809764 -0.3782226367878388
-0.4250235112158623 0.6710588958333752 -0.354024312666006 -0.5939388647716664 0.3564503821303982 -0.23910916117119943 -0.9151485775190088 -0.07482297987871732
-0.3430621392276634 -0.49902720449641025 -0.08899487276086879 0.6042066895614835 -0.9492315111557681 0.14903161574317428 -0.013224742644638018 -0.8825960639777766
0.678294993216526 0.4444224066170642 0.13576242281947806 -0.0017474450478038343 0.1943280779276421 0.6002608278897433 -0.7786261245286126 -0.009275919933268153
0.6825663685520891 0.10017321645148362 0.3898737035433091 -0.7158021549405046 -0.15472413355341696 -0.8338146149998961 -0.37913260427762446 0.45425778233811026
0.024670888317494005 0.038668803993687995 0.16567869599072274 0.10628913160193652 -0.03854669600933418 0.302380627900181 0.09544215883577656 -0.10997906005251877
0.05603108716482193 0.6858715567731043 -0.6366793622170542 1.1140253013399557 0.6487983475003823 0.3624549659420418 0.4545926513209343 -0.32918505006889154
0.9182640149357509 -0.5868877034589337 0.05426417265848631 0.24218453646543012 0.2635048887640563 -0.8948052165600489 -0.11165092842996 -0.14791966622750782
-0.7825822084009982 -0.4199336671086284 0.5848974022752582 0.6411116920595981 0.3395314305737681 0.022518466653220486 -0.2551120109801505 0.3210495065447399
0.4080872798286948 -0.6483427069986284 -0.2766618286909156 -0.7596730962278375 -1.1025806964625653 -0.703514663105367 0.42068149642845826 -0.4923804695110062
0.6745245024290741 -0.3359244259444137 -0.03948020578783957 -0.01221334152432673 0.036204134687761194 0.010779038914181785 0.013092201997760214 0.36769956350386823
0.1252326317189311 -0.2137878909601944 0.005230167118287368 0.029526448901078164 0.009036736654328848 -0.00913236739318052 -0.006083220028140754 -0.00028489795159216443
0.005852444957372963 -0.0035784668599168515 -0.025191199599049554 -0.01523858897193682 0.01695469899991351 -0.010489190131106007 0.009923346261842532 -0.23941929628321265
-0.12183489259287819 -0.7048175751884499 0.3383466886709563 0.015274234219765823 -0.10511304826601463 0.6421242875944513 0.07944089592427105 0.6391813873586304
-0.08183423297465883 0.28411355338352595 0.2797560081194224 -0.056599851790745705 0.10684256634983906 -0.14301092542013166 0.08057408668228942 0.06056741436677186
-0.16801523283890196 -0.08228914331373835 0.029058318371626358 0.017495200568828403 -0.2397910498288156 -0.14934000089583535 0.14033739170023432 -0.08178043626797536
-0.008159569576969566 -0.22513740513574385 -0.7626992484411739 -0.35125922275017174 0.09595812048164196 -0.7003151603042412 0.3427755573643201 -0.05605985707739675
0.8079947862354425 -0.32385883125095266 -0.031064373603184568 0.20759319842648266 -0.04651388269964914 0.06593477810840319 -0.3026506074168921 -0.6096399881958047
0.616390366235479 -1.1384341581843576 -0.025247364207894814 0.4659772609788034 -0.15972334714606853 -0.21795017007739712 1.709186147442179 0.059910409918157354
0.39332530719036257 0.3160524989008104 -0.521650154872102 -0.23639248133359733 -0.00440035716872138 0.012937565992227984 0.0031769400477024406 0.009705321930275047
-0.001670151796668002 0.009472568170051068 -0.017151687465045105 -0.019460163711708375 0.018892495121939922 0.4100431373076446 0.07159908951430198 -0.45694696853499606
-0.33989757153604383 0.8509272268419629 0.21948227690309402 -0.23228260006173648 -0.5054242907320768 -0.42873171855204856 -0.5546597304656302 -0.43501582541377304
-0.36427876525744024 0.41575793278554574 0.26037238918744116 0.9363379833288972 0.24901192414397733 0.9704695285649206 -0.25031432810333093 0.29274131821472354
0.6466176876798571 0.5514358024759176 -0.07352782983009694 0.19152955325484933 0.22051593001773387 -0.10758455874791742 0.12583616202964176 -0.17003701908091973
0.8416961050933631 1.3757685579891046 0.7466642031904241 0.08604167684601059 -0.6876251033897914 1.0822508108242206 0.041403294156721435 0.1243313725489354
0.7591369043201686 0.7396669358121515 -0.7775399894838625 0.7685644704422825 0.024714793655964195 0.40009640111652023 -0.6985328104602881 -0.41056217121516214
