base_model.npz (npz, 989696 bytes, 12 tensors)

W_i f8 [128, 217]
0.44307689308248244 -0.6164080333065631 -0.13058951147784303 -0.006392862763519149 0.4676874962062486 -0.47780772578947767 -0.36292292029508705 -0.5232419703713624
0.07445389197703826 -0.24614212478788022 0.4686305427335781 0.3635476872256141 -1.2266840209277527 -0.2545569234336022 0.3265397626243426 -0.9520464653772066
0.14259876677747665 0.09925355509910529 -0.38570824725198605 -0.6411020537166416 -0.4880239983647277 -0.4255841645593876 -0.9038984768037515 0.919075848802257
0.49007334002636077 -0.13672709187789875 1.1131142443141173 -0.16148376849071064 1.4846609067373449 1.1028414123929728 -0.09610425411884972 0.5778438044004663
-0.17947133705682983 -0.3365654202479678 0.26362247938317324 -0.5636251530758323 0.04538154021727352 -1.4112675987174321 -0.33015804963911327 0.7261781767956302
-0.1172112094018967 -0.16991075770046127 -0.15366573241004275 -0.23165311297061122 -0.164196955222405 -0.5934857141741546 -0.47616709426121256 1.4902801236502874
0.3345541393199569 1.2263720517276184 0.8162037145427923 -2.034547247079296 -0.7140628596712201 0.8100504301569939 -0.2207495060211057 -0.5711422226850426
0.5205469128151191 1.6176434255884755 -0.12402297785813525 0.08276169025000914 -0.9256144062959213 0.28155087768609904 -1.0017510320742795 -0.13996708472940605
-0.5874881978959455 -0.6942495205298403 -0.5859295504229677 -0.8234267745143937 -0.3683369664080178 0.827227271770402 0.693704134163141 0.5987185995267467
-1.6277223910267224 0.4574189097831406 0.3563941302586085 -0.5307672811015693 0.45615556510566757 0.8041628369789806 -0.08014542201141116 -0.9204282771768955
-0.32067550015290663 0.19741915237179702 -0.805083129031594 -0.01719875732473446 0.14738588570079073 0.3473904260328069 -0.09208113013602746 -0.8768846212599114
-0.4638343470010044 0.5659044843956444 0.46237470067975617 -0.21359889638581378 -0.12840787176019333 1.130021249812871 -0.05368716454650782 -0.0031311661436881364
0.5146706117536877 -1.2114519987732715 -0.01713631424519724 -1.3720755099562074 0.3474115964253681 0.787905761044602 1.5199014359513012 0.5051432597070701
-1.338022253799026 -0.36115378913081136 -0.34653003899182805 0.5745540020267019 1.0233614951181682 0.40965379739840363 -0.29533687468041175 -0.16340532838795696
1.5474025031859637 0.11851488803568389 -0.851855855669022 -0.9737436027829575 -0.1080620679803094 0.30552926870342 -0.18300737286536795 0.653505765540947
1.1375944658314256 0.36672045793967817 -0.09606192984008993 0.1442454526445504 0.5049921123573202 -0.05924833471626064 0.3003745756126222 0.1999579719006588
0.8955123966108163 1.0890224186143116 -0.02427167219197523 -0.012897146888060037 0.020087800713671455 -0.09201473859490071 0.12538763979170084 0.24459111415213206
1.4456988688531314 -0.7979070758578648 0.015778115326517503 0.004668180343186213 -0.000763979674573874 0.01879366589494925 0.006170032158777492 -0.0024127505244844107
-0.0029626052398282676 -0.010719594532578295 0.10570859058837272 -0.0075128554646632355 0.05414222246485848 0.014855052048069878 -0.11956623081246136 -0.1539369840112375
-0.17279173840897974 -0.5179893657000918 0.3950535298782959 0.2656076912341522 -0.5026370648915042 0.29213782717414016 -0.02004280264462298 0.6522787059517726
-0.00555464893975077 0.2198922159541533 0.3862784420217157 0.3115130529300371 0.18510119364472088 -0.26598570434083213 0.05078612382478793 0.06753227775984728
-0.13775397612113569 0.06820754111011573 -0.04710727013210197 -0.006100967890158196 -0.2014178138565838 0.10116370504734334 0.14203783052529578 -0.08680985167100158
-0.010282985184549176 0.050441757683709294 1.3382951910568743 -0.34884716783880587 -0.2070878774785281 -0.23815009784537286 -1.4532976474036798 -0.8980154870070232
0.4292562594911391 -2.0498562339308712 -2.0626155076177093 0.17261664514785133 -0.18644099141709436 0.003858965826876612 -0.12821844046938258 -0.08379528661192068
0.15897620336920706 -0.07768589644760529 -0.21550826329107822 0.7623440614267066 -0.41315028394340253 -1.0158787796884605 0.7041777009356465 -0.128303631537303
0.4177352595835254 0.8133972296449482 -0.47722668516320477 -0.3486227778829319 0.008436902963885667 -0.006549097185557602 -0.002728860872443621 0.008242704219345512
-0.0015896371824305141 -0.01155407951907564 -0.00445165261517278 0.006533188098026386 -0.05405420697839347 0.4018858593099192 0.1084988103679263 -0.6072479210156126
-0.2646082854048147 -0.04690932719589613 -0.13831009808340985 -0.5420549863913978 -0.6238858026419154 0.1852223079199923 1.8070713961777622 0.5303594096829628
1.0455707968867918 -0.3369498229963251 -0.24236839681565392 0.18538808312564617 0.14981282645543023 -0.9361332288366216 -0.4422594937512561 0.023541091863970093
0.40071263552305897 -0.003037205935915139 -0.41697023504903874 0.12961542834652107 0.6607260732096687 0.18525556265289767 0.093732044349266 -0.17530913877538096
-0.032130873166038715 0.6080992811275966 0.06969603931747041 -0.16215316686289905 -0.9902384159172425 -0.22825331758269785 -0.300576182503473 -0.4516392440351991
-0.004686904941327099 -0.4464683294021515 -0.6875133988748882 -0.22537561334924058 -0.18118227685846214 -0.0963625520530843 0.10308079959004769 -0.1563202356774473
00000000: 64c3 592f 5f5b dc3f 4463 0157 9db9 e3bf
00000010: e8bc 7f38 28b7 c0bf 8f3f f407 672f 7abf
00000020: b60d 3d89 97ee dd3f 2faf 02db 6694 debf
00000030: b9b7 680e 213a d7bf a077 d4f1 65be e0bf
00000040: 8bee 1907 690f b33f fce1 10cc 9581 cfbf
00000050: ffa2 bcf5 0afe dd3f a5e8 ca84 5d44 d73f
00000060: 5191 866c 7fa0 f3bf 5b88 471f a94a d0bf
00000070: 7e2b 5408 07e6 d43f f328 2226 2a77 eebf
00000080: 412d e127 ad40 c23f 7992 2955 ae68 b93f
00000090: 2eaa efa4 71af d8bf ae90 4374 e883 e4bf
000000a0: 3df0 2802 c93b dfbf 6798 1e5d c53c dbbf
000000b0: acd7 987f bcec ecbf b6c5 24c1 1169 ed3f
000000c0: 5380 0392 5c5d df3f a3df 0bfa 4580 c1bf
000000d0: 7aa7 c0e1 50cf f13f df4f 4008 80ab c4bf
000000e0: b962 81cb 2bc1 f73f b06f 6e09 3da5 f13f
000000f0: 316a 72d4 499a b8bf 4414 434a b27d e23f
00000100: bc3e 9db1 eaf8 c6bf 397d 3bb0 498a d5bf
00000110: 053c dcd1 30df d03f fa3c f59d 3709 e2bf
00000120: 868d 26ce 3f3c a73f 4a55 6655 8d94 f6bf
00000130: 4183 6d3a 4f21 d5bf 15ff 0c04 da3c e73f
00000140: b212 1bc7 8d01 bebf a0f1 c7bd a2bf c5bf
00000150: 57c7 9b97 51ab c3bf e1d8 1c28 cfa6 cdbf
00000160: 8939 64e4 6704 c5bf a7ad a0c0 d5fd e2bf
00000170: e320 528c 8579 debf 234f 8ff8 2fd8 f73f
00000180: 9cb8 c7c3 5569 d53f 6d60 ee4c 389f f33f
00000190: 6cb8 9a40 571e ea3f b1fa 02b5 c046 00c0
000001a0: a36f b25a 9ad9 e6bf 1752 34e1 eeeb e93f
000001b0: c601 7c12 8541 ccbf 1581 f90d cc46 e2bf
000001c0: f163 d2ff 51a8 e03f dfde 9712 dee1 f93f
000001d0: d36c da49 f8bf bfbf d947 fcc0 de2f b53f
000001e0: 04eb 771a a29e edbf df99 f4f8 ed04 d23f
000001f0: 77e4 1717 2c07 f0bf fef1 b601 71ea c1bf
00000200: 51f8 970c b4cc e2bf 1d0f 3ec5 4a37 e6bf
00000210: bf73 1a54 efbf e2bf 3215 661b 8359 eabf
00000220: 9f56 2836 d592 d7bf 2d9f d353 a578 ea3f
00000230: fd94 2a03 d332 e63f 732d 8fe8 b328 e33f
00000240: c0d3 46a2 260b fabf cacb 85f6 5946 dd3f
00000250: 159d 7c53 29cf d63f 4ec7 43aa 0bfc e0bf
00000260: 7a1a 811c a731 dd3f 3477 afb3 b3bb e93f
00000270: a78f 760e 6984 b4bf 7c3a 9900 2674 edbf
00000280: 5740 7288 f285 d4bf 823c 85e1 0745 c93f
00000290: bf10 b8b1 3dc3 e9bf 6d5f f710 8d9c 91bf
000002a0: bd0a 7d6b 8add c23f 4c48 b00d a53b d63f
000002b0: 3751 8302 a192 b7bf 3fa7 5556 700f ecbf
000002c0: 835f c841 76af ddbf fa72 a4b8 e31b e23f
000002d0: bab5 7a0e 8c97 dd3f 6129 3869 3557 cbbf
000002e0: a926 e14c ab6f c0bf 84b3 7b29 9114 f23f
000002f0: e46a e24f e27c abbf 027a ef05 88a6 69bf
00000300: 8a38 b680 2e78 e03f 047b b67d 1b62 f3bf
00000310: 8145 0795 2e8c 91bf 8f78 2e73 05f4 f5bf
00000320: 947a 39d9 fd3b d63f a187 8024 8636 e93f
00000330: 52de 082b 8451 f83f 0d93 8732 222a e03f
00000340: 4531 d605 8a68 f5bf 132c 49c8 241d d7bf
00000350: e14b 2354 8c2d d6bf 04b3 0f13 bf62 e23f
00000360: 884a 984d b05f f03f dd88 a08f c437 da3f
00000370: b588 83a2 cce6 d2bf a48e b53e 77ea c4bf
00000380: 7fea 8e20 29c2 f83f 20ce 33e0 fd56 be3f
00000390: 3d25 2036 6742 ebbf 678b 1458 e828 efbf
000003a0: eade e9a7 f4a9 bbbf ba53 43a2 ca8d d33f
000003b0: e41a b11c c96c c7bf afdd 57ec 84e9 e43f
000003c0: 7bb4 2d41 9633 f23f 0101 6815 5978 d73f
000003d0: fcc7 0dbf 8397 b8bf 6e3f da8e a276 c23f
000003e0: 3601 ea37 e528 e03f 3bc9 e537 cc55 aebf
000003f0: 0197 b348 5639 d33f f9a3 f10a 3998 c93f
00000400: a864 139d 09a8 ec3f daf2 88c5 a26c f13f
00000410: 9e93 2259 acda 98bf de74 c4c0 d169 8abf
00000420: e383 747c e591 943f c7dc 0325 478e b7bf
00000430: 8f2e 1dc2 b30c c03f 637a 16fa c24e cf3f
00000440: 0e6a 1923 9521 f73f 04cf 816b 7488 e9bf
00000450: 3c96 4765 2328 903f b437 7e1e f11e 733f
00000460: 410c cadb b908 49bf c322 9091 a53e 933f
00000470: 4a3e 6565 bf45 793f ecfb 1293 e7c3 63bf
00000480: ee70 b693 0845 68bf 35e9 8c9f 27f4 85bf
00000490: 7bba 7bdb b70f bb3f be29 53c8 ccc5 7ebf
000004a0: 657e a385 87b8 ab3f 6a90 d055 536c 8e3f
000004b0: 7ba6 0b7b e49b bebf da8f fc03 35b4 c3bf
000004c0: ab26 be28 0a1e c6bf 1a72 2b6f 5e93 e0bf
000004d0: f2c8 bf99 8e48 d93f 06ac da66 b7ff d03f
000004e0: 14ed 6e53 9a15 e0bf b0cb 68db 62b2 d23f
000004f0: 1cee 83b7 1986 94bf 0115 be97 77df e43f
00000500: 7d83 97b8 78c0 76bf eb82 159a 6d25 cc3f
00000510: ba84 e836 c9b8 d83f e324 a771 d4ef d33f
00000520: 38cb 935a 65b1 c73f ca3b 56e7 e805 d1bf
00000530: 590d d689 a300 aa3f 9126 679c cb49 b13f
00000540: 77c8 2a1b eca1 c1bf f094 68a6 0c76 b13f
00000550: f70f 3eb1 711e a8bf d0ab fe18 54fd 78bf
00000560: 9644 ac15 0fc8 c9bf a474 b854 dde5 b93f
00000570: de51 73ae 4b2e c23f acc6 e5a1 2b39 b6bf
00000580: 0048 95e8 3e0f 85bf 4165 3587 80d3 a93f
00000590: cabb df37 a869 f53f 8cdf 4a12 8353 d6bf
000005a0: f18b 9506 db81 cabf 637d e4d0 b37b cebf
000005b0: 9f3d af08 b540 f7bf c8e4 7ff9 8abc ecbf
000005c0: ec88 073f ef78 db3f e8e0 7106 1b66 00c0
000005d0: 2586 2b8f 3c80 00c0 83df d35e 4d18 c63f
000005e0: 2097 6264 4cdd c7bf fae9 ba80 d69c 6f3f
000005f0: 0cb2 473c 7669 c0bf 1ea1 8e9f 9b73 b5bf
00000600: 0910 280d 5559 c43f 2258 9a10 39e3 b3bf
00000610: 152d 6d57 c695 cbbf a514 845f 1f65 e83f
00000620: 89ae 77e3 0d71 dabf b165 771b 0a41 f0bf
00000630: 0cea 82ac 9f88 e63f 7a93 b4de 406c c0bf
00000640: 2a07 93ab 2cbc da3f fd6c 7fa0 5907 ea3f
00000650: 287c 63cb e18a debf 9d76 69e9 d54f d6bf
00000660: 43ae 79f2 5d47 813f 614a afe3 39d3 7abf
00000670: 09b6 7a06 d65a 66bf d5e8 6b08 8de1 803f
00000680: 65c1 81ed 6b0b 5abf 11c7 5b4d aaa9 87bf
00000690: 073b 5366 e53b 72bf fea4 8353 8bc2 7a3f
000006a0: 90e8 5d36 feac abbf 5f80 9d77 7fb8 d93f
000006b0: f065 2ffa 93c6 bb3f fb6e 2a31 936e e3bf
000006c0: b51d 0497 57ef d0bf d012 5ed4 7f04 a8bf
000006d0: 2bc6 fc31 25b4 c1bf b5e9 e5b2 8358 e1bf
000006e0: c224 d95b dff6 e3bf e5c4 8055 5db5 c73f
000006f0: c4ed 41b2 c3e9 fc3f a7da f64b b4f8 e03f
00000700: bc80 a471 a8ba f03f 9161 8afd 9590 d5bf
00000710: 9c1e f478 ed05 cfbf 35e0 0bf5 cbba c73f
00000720: e3dd 1213 112d c33f 69ab 51ac cdf4 edbf
00000730: 5575 80c3 fa4d dcbf 95e9 abee 271b 983f
00000740: a797 2a9c 46a5 d93f c2a5 4f85 7be1 68bf
00000750: 3c3a bcec a3af dabf 5c15 e704 3d97 c03f
00000760: d699 8101 ab24 e53f ec85 7f4b 74b6 c73f
00000770: d33b 11c1 d2fe b73f c276 dda4 8770 c6bf
00000780: 944f e132 7573 a0bf 9d40 a59f 8c75 e33f
00000790: f37d 8781 99d7 b13f d03a 4f5a 6fc1 c4bf
000007a0: d76f 7379 08b0 efbf ec4f 1c9b 6737 cdbf
000007b0: bdc5 73e2 a33c d3bf 7d2a ae49 a8e7 dcbf
000007c0: a951 1477 9332 73bf 05d9 5ee6 ef92 dcbf
000007d0: a357 7719 1c00 e6bf a751 53ac 1bd9 ccbf
000007e0: a167 dc18 fb30 c7bf 4889 a059 37ab b8bf
000007f0: 79b4 15d7 8063 ba3f de04 f82d 4d02 c4bf

W_f f8 [128, 217]
-0.7571240515543086 0.5050325087227185 0.19602946972615776 -0.04709734283430796 -0.8377385992548965 1.1357310655416082 -1.150126587499533 0.48884732872987474
0.03773214670739281 0.35861615746893244 0.3757070229785082 0.3405333406029905 0.03543276334831949 -0.4922094450520832 0.23679105549421336 -0.1319669491049076
0.7618600082608356 -0.18307141334827143 -0.6842458992711391 0.07907013378810838 1.6106059365588792 -0.8578900262911356 -1.3744533500485938 0.5699232899414913
-0.01863901935784886 0.5411881885275501 0.2150931624131101 0.15518810610268646 -1.058459407283655 -0.5198769355079705 0.6633585394763745 -0.16003094331204898
-0.46744927301823735 -0.3904337943262183 0.4652234316630154 -0.08943237430826932 -0.20119226037276425 -0.03712643530127658 -0.30588411143013966 -0.09805915018479554
0.5594374218609441 0.6829784810282097 0.2982209307169844 -0.417653842436759 -0.31061331851745844 -0.4715937284791263 0.8933728926847688 -0.07630360085839595
-0.022574953997154465 0.16342635719305992 -0.6456185752895027 0.05025477493464804 0.1555911459579358 -0.37103900869797707 0.22548363152849568 0.6838055186965714
-0.8712096139811762 -0.9397983013931713 -0.7359911098420536 0.06428981676743872 -0.27424116834099244 -0.6100401299243312 0.3877691655452857 0.3482915173988481
0.16435152301711167 -0.08016230791157437 0.12883751616691327 0.37927528574333563 -0.03297095982561939 0.5215485518018329 0.42823850855652645 0.2710807286976885
-0.14910292146729398 -0.8108878948556157 0.4757373194776705 -0.901330871136426 -0.027507352817474042 0.12435729870337608 0.6255787141930982 -0.6440598933160618
0.8419187516120444 0.6424344330780105 -0.2848140312934787 0.9911607309089772 0.18282001923494517 -0.3816157733023363 0.27519138483401656 0.3438493487613389
-0.11153863295311729 0.13331203719362125 0.1196470950541879 0.3079681119327146 -0.12535488581317497 0.22461572581322456 0.1180847621066824 0.13633508106764647
-0.19748045354727864 -0.5612497485639791 0.11508807408843963 0.4238651817419915 -1.3171592846110636 -0.3299027703044705 -0.6250270828101784 0.2836698784947846
-0.5197889543233514 0.14507382451663292 -0.020582941729455195 -0.24461151699764816 0.6377774783873432 -0.800500143103619 0.4446919184351428 -0.6306308109888051
0.7218270061392156 0.04201946979576943 -0.25361051287997566 -0.9653678807721847 -0.8593880608161921 -0.8733681002051807 0.5431221295211732 0.1889553832008273
0.07482746372769805 0.8046788795990201 -0.31213035568653696 0.6340127217637314 0.05782229604647007 0.005465727739888054 0.20947257116726456 0.845685475854657
0.16009450142643233 0.18675752863900413 -0.02227434687051874 -0.00028393074726545015 0.014108071474104028 0.004378613610870732 0.031773793657334105 0.05751970196016698
-0.09956794610745517 -0.4631975079966385 0.00037500243491008693 -0.03347047557351872 -0.006411824489209652 6.643166449577172e-05 -0.009060654060396944 0.012540720752052339
-0.004940796813434009 -0.0017159507100220428 -0.0638735481465085 0.00357193806437929 0.006594497062567236 0.13067749869523929 -0.1287957385786856 -0.028257073314428834
-0.03181154719910815 0.1797613072541614 0.1134716817175542 0.14694073685768244 -0.2388905815361915 0.18176137741400009 0.1622636258076481 0.331502940157247
-0.006984208350977117 -0.012990897211733155 0.0830478706318636 0.0337503735958932 -0.10610877293067084 -0.0067107553396566835 -0.022122865035377852 0.006120522645024905
-0.06951081249834239 -0.09798380824055532 -0.26865809066843 -0.003761501161971273 0.044937847741813065 -0.2932436399588665 0.04922239618861518 -0.09662507467271442
0.005529835455371111 0.038458509166638 -0.35777348915275425 0.3428347534507105 -0.3100575677548802 -0.8816439196797485 -0.3755759909373558 0.3341525902770365
-0.22962479353420187 1.3844993338434481 -1.0032519939376199 -0.018937089248913564 0.14731311570816064 -1.0603399545806749 -0.9413598593051351 0.35021317257102824
0.4461497366987251 -0.4346107765979821 0.16001547173997158 1.1826758908514865 0.13033995405417365 0.1248631500674046 -1.018764827159381 0.08983598286213801
0.6457289088655396 0.09021782557876819 0.4913025081738835 -0.03371438322032142 0.009357989733636244 0.013789102973953202 0.004740203594502865 -0.008082236019826449
0.026787227998777814 0.0047717570628622785 0.014921920186800691 -0.008067970823042753 0.007546268904519383 0.09397472096099285 0.0006597780685175227 -0.4490670724092637
0.102770615355801 -1.1925018182031955 -1.2431306536118374 -0.8624834386828979 -0.907998524146888 -1.009514670035264 -0.49862538490641845 -0.7676431066104977
-1.500410530211179 -0.22562959073255653 -0.6760600248817724 -0.47272841395645543 -0.10000277781342518 -1.1616775493576454 0.22344134581637928 -0.11006438082602282
1.0732083053381545 -0.2890432707633002 -0.10299691680205937 0.06502988978132074 0.015681953330217317 0.10466851413203407 -1.255480447850103 -0.729252204986189
0.7338000356115977 0.7887583771143201 -0.9790228258667226 0.4904230555851399 0.49408530377299364 0.6754522331827572 0.05898921618897103 -0.5703891351887485
-0.2562861831077159 -0.2781545695453333 -0.07928809411471067 -0.4818866495070067 0.5213266123201095 -0.12646247966179527 0.18093027756066596 -0.15270665527660632
00000000: d11a 0e38 5c3a e8bf 6c30 8cef 3929 e03f
00000010: 4056 c360 7e17 c93f 3b59 6796 241d a8bf
00000020: 32b1 cc2d c1ce eabf cbd6 7856 f42b f23f
00000030: 1521 f922 eb66 f2bf f96e 684e 4649 df3f
00000040: e574 3bc0 a051 a33f 2d5c 092f 91f3 d63f
00000050: 607e 2478 950b d83f 2999 455a 4ccb d53f
00000060: d46c 933f 3e24 a23f 02fc 510b 5c80 dfbf
00000070: ae9e aa57 2b4f ce3f 197c 4701 4be4 c0bf
00000080: dc89 733d 2861 e83f cae7 9452 e26e c7bf
00000090: 3855 f9a7 57e5 e5bf 43d4 b5b6 f03d b43f
000000a0: ad38 04bb 0ac5 f93f 2f85 cfc8 d573 ebbf
000000b0: b161 c5cb c2fd f5bf b7e0 70c4 cf3c e23f
000000c0: e62f 496a 1b16 93bf 49a2 56e4 6951 e13f
000000d0: c229 1439 2c88 cb3f 3e38 3830 34dd c33f
000000e0: 59d4 a621 73ef f0bf 2772 7ef4 d4a2 e0bf
000000f0: e958 12b0 3b3a e53f a6c7 efd9 e47b c4bf
00000100: 5cbf 095b b0ea ddbf 5698 7806 defc d8bf
00000110: aed5 1480 38c6 dd3f c78e db42 0ae5 b6bf
00000120: 0732 4101 abc0 c9bf 0141 df72 3c02 a3bf
00000130: 9157 bdf3 9a93 d3bf 0b04 1e8b 671a b9bf
00000140: 56a4 e14e e9e6 e13f d169 fcaf f5da e53f
00000150: 5660 1a3e 0d16 d33f af22 942e d7ba dabf
00000160: 4c02 2faf 16e1 d3bf 6042 3476 972e debf
00000170: 16d9 a6bf 8296 ec3f 31fc 40fe a188 b3bf
00000180: bc84 8184 e31d 97bf f26b b9a5 27eb c43f
00000190: 76df 5149 e8a8 e4bf a2d2 9f6d feba a93f
000001a0: 21df b721 69ea c33f ff79 f965 1abf d7bf
000001b0: bb5e 99cb a5dc cc3f ef08 741c bce1 e53f
000001c0: 6651 00fc f2e0 ebbf 9f3d 2ae3 d312 eebf
000001d0: 3d63 5d3a 3d8d e7bf 2863 7b24 4c75 b03f
000001e0: fc72 4fd4 2a8d d1bf 16b9 e8e0 7285 e3bf
000001f0: 7382 1ac3 35d1 d83f f4f1 2c81 684a d63f
00000200: 2d01 3480 7809 c53f d522 da5a 8485 b4bf
00000210: 57a6 376b bf7d c03f 33b7 1cd9 0b46 d83f
00000220: 6368 56d4 91e1 a0bf 297b a896 86b0 e03f
00000230: 96d6 487d 4268 db3f 6246 15fc 6259 d13f
00000240: ac54 b8f5 cd15 c3bf aa11 a42b cbf2 e9bf
00000250: ce2b 29f1 7a72 de3f 19ff ccd6 b3d7 ecbf
00000260: 3799 0033 e32a 9cbf e02c f342 e1d5 bf3f
00000270: 0e0f d1a6 bd04 e43f c3a5 4e7e 239c e4bf
00000280: 1903 0298 fff0 ea3f 909e fca7 d28e e43f
00000290: fe3b 76a1 643a d2bf 24ac 8ab5 96b7 ef3f
000002a0: f086 d579 a566 c73f 8629 7e90 646c d8bf
000002b0: ff31 8053 bc9c d13f 0693 ebb2 a001 d63f
000002c0: 1931 c6bc cb8d bcbf 5372 f46b 5e10 c13f
000002d0: 2fb3 5128 31a1 be3f 638f 3de2 bfb5 d33f
000002e0: 2f0f 7bff a00b c0bf 3d7e 4446 35c0 cc3f
000002f0: c875 678f cd3a be3f 98d4 3d8d 6d73 c13f
00000300: 05db ca1c 0a47 c9bf 720e 5f08 c2f5 e1bf
00000310: cc95 5e7a 6976 bd3f 42ad 5f6d 9b20 db3f
00000320: b76f 309d 1513 f5bf ef51 5482 201d d5bf
00000330: 8716 f9cb 3800 e4bf 87b4 bfb4 a527 d23f
00000340: b281 f471 1ca2 e0bf 86fc e671 c791 c23f
00000350: c37c 55d6 b113 95bf a06b dd20 6e4f cfbf
00000360: 4b91 7950 ac68 e43f ff58 e279 b29d e9bf
00000370: 305d 9e17 d575 dc3f 0180 a1aa 202e e4bf
00000380: c899 17f3 3419 e73f a1dc 2271 9383 a53f
00000390: 2b71 af96 273b d0bf c1cf 902e 4be4 eebf
000003a0: b0e8 f863 1b80 ebbf 6407 78a8 a1f2 ebbf
000003b0: c4df 00a9 4161 e13f f916 a0a3 b02f c83f
000003c0: 4497 8d85 e427 b33f 5e1c f5eb edbf e93f
000003d0: 31cd 7099 f1f9 d3bf 3d24 270c d549 e43f
000003e0: a499 ff4c e29a ad3f 6c3c 441e 3b63 763f
000003f0: 8345 4949 ffcf ca3f 34ef affc da0f eb3f
00000400: 90ae f203 fa7d c43f aea5 e4b2 abe7 c73f
00000410: 5801 651d 16cf 96bf 53fb 1946 919b 32bf
00000420: 9d2d ba4c b1e4 8c3f d00c 2b24 4fef 713f
00000430: 9d96 4199 a744 a03f c0d3 96ed 3873 ad3f
00000440: cceb 42f0 487d b9bf eeca 1b29 07a5 ddbf
00000450: 8ac1 a031 7f93 383f 868d f0cb 0a23 a1bf
00000460: 9c51 d207 4943 7abf 9930 434e 276a 113f
00000470: 534c f566 648e 82bf 2e96 fc0b f3ae 893f
00000480: bd96 ad0b cd3c 74bf a405 970b 381d 5cbf
00000490: 7265 5e50 045a b0bf 1f62 6fa5 e542 6d3f
000004a0: a209 7ad3 d402 7b3f a10c 9c4f 0aba c03f
000004b0: a2a1 87f6 607c c0bf 9f88 1017 6cef 9cbf
000004c0: cded b565 9a49 a0bf 1415 df23 6b02 c73f
000004d0: 8abf ffe9 7a0c bd3f 667f a03d f4ce c23f
000004e0: 499b 8271 f793 cebf 37a3 d5f1 f443 c73f
000004f0: 2d4d 16f3 0dc5 c43f c634 a01b 5837 d53f
00000500: 735a 4b27 799b 7cbf ed58 5cb5 f89a 8abf
00000510: 61c5 5d10 a042 b53f f5ef a49d ba47 a13f
00000520: dc50 8ecd f129 bbbf 68cc 71ab bc7c 7bbf
00000530: de77 4857 60a7 96bf d856 8449 d511 793f
00000540: b315 66ea 75cb b1bf b143 ee83 7715 b9bf
00000550: 6982 4eb4 b131 d1bf 075f 2f8f 70d0 6ebf
00000560: adb3 cef4 1702 a73f 7c88 d8f8 80c4 d2bf
00000570: 48c2 b88b ad33 a93f b05f b1bf 6bbc b8bf
00000580: 7ee5 ede6 73a6 763f f64b 3f6e d5b0 a33f
00000590: 695c d2c6 c2e5 d6bf 8f31 802d 01f1 d53f
000005a0: e39b 58b2 fbd7 d3bf 96bc 374f 6d36 ecbf
000005b0: 7147 8fe1 6f09 d8bf 8e44 c78b c162 d53f
000005c0: 5542 4a61 5864 cdbf f50f 03c6 e826 f63f
000005d0: ecbd 79f6 510d f0bf 3da6 058c 3e64 93bf
000005e0: 5884 1efb 27db c23f d80e 3907 27f7 f0bf
000005f0: 6a72 2fb6 9e1f eebf c88a b482 e469 d63f
00000600: bd5c 0fa0 b78d dc3f 488f feb7 a9d0 dbbf
00000610: 9114 fd10 637b c43f c898 0f8e 3dec f23f
00000620: 402d 03c8 faae c03f dbd9 030a 08f7 bf3f
00000630: 246f ef58 dc4c f0bf 309b 65b0 7dff b63f
00000640: a218 35ac cfa9 e43f cd85 60f2 8318 b73f
00000650: af2c 4313 8071 df3f 3514 acfa 0243 a1bf
00000660: 8fee e51e 482a 833f 85b2 8312 763d 8c3f
00000670: 63e7 a2b6 766a 733f 66d5 115b 6b8d 80bf
00000680: 122c d270 1c6e 9b3f 17a1 78c8 8c8b 733f
00000690: f00f 9139 628f 8e3f b0f1 a3b6 f085 80bf
000006a0: 0e7f 6d22 d6e8 7e3f dc9d 2d31 ba0e b83f
000006b0: ed15 0b9d 9e9e 453f fe53 6dd1 83bd dcbf
000006c0: df65 f1cf 2c4f ba3f f6a6 59c9 7c14 f3bf
000006d0: e8af def7 dce3 f3bf 6682 4fde 7699 ebbf
000006e0: 6ade c0eb 520e edbf 9823 cada f826 f0bf
000006f0: 0139 4872 7ae9 dfbf af8a bc46 8890 e8bf
00000700: ea4b dd78 ae01 f8bf 9964 9a30 6ee1 ccbf
00000710: 4d01 20a2 48a2 e5bf a94e 75ad 2e41 debf
00000720: c2c2 3734 c899 b9bf f3d0 af32 3b96 f2bf
00000730: 7f83 6ddc b999 cc3f 8c2d 1ae4 2d2d bcbf
00000740: 3a91 d378 dc2b f13f f1a9 c358 af7f d2bf
00000750: 09f1 4085 015e babf c88d df81 cca5 b03f
00000760: 0e42 c312 ee0e 903f 4235 1e45 8ecb ba3f
00000770: bb89 84aa 7216 f4bf 4373 5eb8 0856 e7bf
00000780: a02c 5836 4a7b e73f 82dd 4435 823d e93f
00000790: 8c52 64ad 2754 efbf 0053 3c62 1763 df3f
000007a0: 32e9 48f7 179f df3f a5f6 7000 4e9d e53f
000007b0: f254 b2a4 d533 ae3f 0624 34b7 a040 e2bf
000007c0: d050 b729 fe66 d0bf cf87 dbd2 48cd d1bf
000007d0: 7d52 2f7b 394c b4bf 31be 001a 3bd7 debf
000007e0: 0061 ce25 b5ae e03f d1c3 282b ec2f c0bf
000007f0: 7d58 7d2c b928 c73f 78b4 2545 e48b c3bf

W_c f8 [128, 217]
-0.8411967412366541 -1.7099807561276092 -0.4783509858540556 -0.29480450574390976 -0.037643135773416804 -0.29973308320187514 0.2642291212739909 -0.7264642128279841
-0.4203622088855283 -0.824940099962055 -0.6017338709703464 -0.1613259737850093 1.068978124924405 0.2835524640994472 0.26285899284408765 0.41587483381065055
-0.30545375602173847 -0.0827697925045253 -0.2688705484172716 0.2464126950398897 0.2075659681206208 -0.915172531768583 0.5496214600168915 -0.7120783972168017
-0.5842558348334151 -0.06501318332367328 0.07524427653296455 0.010513547198983984 -0.6225729460054171 0.3689655465713198 -0.15126578010648445 -0.1399128426322179
-0.3379669297122368 0.4708685434844091 0.07875887153725387 -0.03791788422651452 0.03496624962889319 -0.6428883253880181 0.22297299114370003 -0.8494542831324634
-0.7395868089402883 1.3636617677941556 -0.8009185870798508 0.6191290259934122 -0.04604793462414959 -0.9908247033455472 0.2713128733962117 -0.03098014858949773
-0.12315140835259684 0.6433952498937773 -0.2193463164368545 1.0692758541138252 0.34153296398054317 -0.08583259859519063 0.9919774179086744 0.024998505382724398
-0.28422889209658303 0.7664385898789763 0.33848527480194507 -0.4102929838557188 0.39048781427855955 0.24924542994949636 -0.2707295607447638 -0.9004325722574885
-0.19227945036128158 -0.36791775443328456 0.31349578024061636 -0.7840029157471375 -0.2936747789003274 -0.8539333645628008 0.5659277896075685 0.9011598043235032
0.5133263462049931 -0.06973532656937229 -0.8647784334973067 0.15978542820836256 -0.2896751652913922 0.3096100178039172 0.007280716447466713 0.3927822128836213
-1.221432826564678 0.2749715718311217 -0.24895843596488673 0.4108958616473517 1.2550519711229913 0.09727317361040727 0.5426836845620258 0.29861966588754457
-0.6557575511368441 0.3400692015132275 -0.2837022295879463 -0.7262104989461108 -0.18253890669926506 0.16041450071693575 -0.29224099247021057 0.36977994317621726
0.3498768298722551 0.07216980800796816 0.8992834763552622 0.5170657256911738 -0.3606235073463306 -1.1124310905096597 -0.17804715429362616 -0.5129203308235387
0.4933717827357515 -0.4678384375055148 -0.6107320823294572 -0.4865847812583579 0.7884005666841943 -0.34155847345695645 0.6578644944726957 0.5000124590491447
0.10194802390766738 0.5998197268970831 0.2043651807652106 0.07405669852977 0.1183030540968783 -0.5252767703727717 0.33269817595361856 -0.03599654841646218
-1.6214832399197525 0.16217441309070907 0.15221740615254967 -0.2063182892442317 0.10921614203879502 1.002096178781307 -0.5228396826810356 0.4286705513878101
-0.7308968077258169 0.6234942612655733 -0.3179075949034608 -0.023079475534914434 -0.033605964375444886 0.0473027161525847 -0.13578987479421484 -0.32074539700317245
-0.5015265787391838 0.016450512650322976 0.00490166229235326 0.016243874716266125 -0.0027615237390920377 0.005322837668130463 -0.008235651575502703 -0.004183609942757208
0.014059475003601694 0.004775910604273459 0.1294134751268571 -0.0021502899906757646 -0.017984098185212342 -0.12247212078404596 -0.1038988228833544 0.9685461855550569
-0.394960927500628 0.3514870718200021 0.060862782380446435 -0.10794608302426328 0.4345863337537274 -0.21789499069698887 -0.2721015484017736 -0.19503303461346908
0.08574496237265226 -0.08523558879277313 -0.2104074918696914 0.2478111311677776 -0.10408044348720706 0.14545150942482996 0.3250532174761813 -0.04081299796847504
0.028876514660967176 -0.05398526956165612 -0.08332313735973318 0.015340354177802664 0.11679529556186909 0.3645706235818517 -0.05862292225213298 0.3767188335194352
0.000501449601564182 -0.24517920639386823 3.6153735582619557 0.9325474248984568 -1.2164946545542459 -0.5456786825027856 -1.2026432245775844 1.4599596742493903
-1.1742115843836949 -0.5999268440048977 0.3253139249788536 -0.05700835724556813 -0.6787068888371814 -0.46256438007576184 -1.784773299924631 -0.6391440299916532
1.9821776186773132 -0.13363795611610294 0.29523050784290683 1.5346937650134718 -0.8783027290293033 -2.310481600162212 -1.3678876969954188 1.7532490155140368
-0.4827932312680733 -0.7935844599391162 2.3137724591253312 0.16899674789149247 -0.011055010739521231 0.0013704802185854632 0.0020502955679843086 0.001010634460761995
-0.0034318411984211547 -0.016338456555439633 0.0022874247837770733 -0.0031355408153747283 -0.0637174277036204 -0.2644819987537857 -0.3899091944024095 0.2618181227517572
-1.0456002381832645 0.436380720030714 -0.80019277774393 0.19525164204996523 0.44209414733633506 -0.4391425719792852 1.1617635684889065 0.4546019150794887
0.514639845959371 0.3250566551214354 0.31930679418605723 -0.09391288684170292 0.11112343456298886 0.6976025463440023 0.3834783184592543 -0.3138630597497043
-0.2141550405795999 -0.2727144095098361 0.1958177937097424 -0.10188065243626396 -0.11324259317059733 0.09053109950881251 -0.15631082884160993 0.1672315070698565
0.43627815561984473 0.6156928900281319 0.1779426345667781 -0.2916439002913141 0.1777169445840547 -0.692294847444225 -0.1428345939147877 -0.22021205872340094
-0.21277987295297165 0.03849073267924852 -0.20113062430137296 0.2662712914294848 -0.17356747692598035 0.10874227645159157 0.06262808458036212 0.24511459190261933
00000000: 5e9f a36d 15eb eabf 0cb8 05c8 145c fbbf
00000010: 6929 1074 4d9d debf dd8b b8b7 13de d2bf
00000020: 1da5 210a f645 a3bf 3b67 78ab d32e d3bf
00000030: 6c72 a142 21e9 d03f 3cf0 79e0 313f e7bf
00000040: 7fcf e8e4 36e7 dabf 35df cfc7 e865 eabf
00000050: e4d1 1664 6741 e3bf b273 b35a 54a6 c4bf
00000060: 1a09 6bce 881a f13f 4178 003c b925 d23f
00000070: 0464 6e86 aed2 d03f 338e 9c7a b19d da3f
00000080: 4f70 23e9 8d8c d3bf 1755 e7af 6630 b5bf
00000090: 35d3 13d1 2c35 d1bf 77fd 4181 738a cf3f
000000a0: 419a 6b8a 8591 ca3f 4098 c4e7 1749 edbf
000000b0: 6979 7ebe 7f96 e13f 107f 87a2 58c9 e6bf
000000c0: 0d6a e34a 39b2 e2bf 8c1c 2f38 b4a4 b0bf
000000d0: 5b96 eb7a 3543 b33f 32a3 136b 2088 853f
000000e0: e9f6 4e19 1eec e3bf 2df9 f7aa 219d d73f
000000f0: f6d7 4755 ad5c c3bf 9ba8 b2fd a9e8 c1bf
00000100: f196 8f0b 40a1 d5bf a4c3 bed0 b522 de3f
00000110: 15ba 8599 8a29 b43f 0d6f 5f11 f969 a3bf
00000120: 645f 3da5 18e7 a13f 21b2 9089 8a92 e4bf
00000130: 233f 6d04 618a cc3f a408 b0bf ba2e ebbf
00000140: 0173 9ef4 b1aa e7bf ffb3 7700 8fd1 f53f
00000150: 1087 4804 20a1 e9bf 5bac d4ac e7cf e33f
00000160: a2a4 844a 9893 a7bf 5104 1e02 d6b4 efbf
00000170: f61c 8eab 305d d13f 2586 1194 42b9 9fbf
00000180: afab 54c7 d986 bfbf b541 96a2 b196 e43f
00000190: e713 cc43 8a13 ccbf 3c24 7dff c01b f13f
000001a0: 2d5a b313 addb d53f 5ea4 e50b 20f9 b5bf
000001b0: 9a39 096d 47be ef3f 3c4e 454c 3599 993f
000001c0: 5185 0861 ce30 d2bf 9c85 bd38 aa86 e83f
000001d0: 5fec 5c24 bea9 d53f 8011 dc80 3d42 dabf
000001e0: 2107 f499 c0fd d83f f7bf 2735 46e7 cf3f
000001f0: a163 5d14 a253 d1bf 952b 43f8 57d0 ecbf
00000200: bc4d 7fef 9c9c c8bf 6828 bae8 f68b d7bf
00000210: 1b51 e49a 5010 d43f 7e48 6348 8d16 e9bf
00000220: 2d5d c24c 91cb d2bf cf55 3810 6c53 ebbf
00000230: ec62 8898 141c e23f 2c41 0116 4dd6 ec3f
00000240: 1205 a45f 2b6d e03f 0ec8 fda2 2cda b1bf
00000250: 7f06 45d2 43ac ebbf 8621 4452 d973 c43f
00000260: 83f4 58b4 098a d2bf d9d5 3e89 a6d0 d33f
00000270: 5579 8870 62d2 7d3f 4f48 b201 5823 d93f
00000280: b8b2 c525 fd8a f3bf 5d0a 165d 2299 d13f
00000290: eb28 44ba dedd cfbf 5093 f527 1e4c da3f
000002a0: ae0e 2c60 b114 f43f fc50 6f0b e5e6 b83f
000002b0: a688 a82c aa5d e13f 1f7c bba8 951c d33f
000002c0: 009c 8742 f7fb e4bf c612 b89c b1c3 d53f
000002d0: 177b 7865 2d28 d2bf 4d88 dfcc 1d3d e7bf
000002e0: 1fae 4255 6f5d c7bf 8013 315d 7688 c43f
000002f0: e172 4d90 13b4 d2bf 5d26 aa7e 79aa d73f
00000300: ca7c 7bc9 6164 d63f 5a1f 2775 b879 b23f
00000310: e6ed 1824 eec6 ec3f 333c b76b cd8b e03f
00000320: df29 8e9e 7414 d7bf 82ae 0c8b 84cc f1bf
00000330: 8022 6bc8 3fca c6bf 31e6 cae5 d769 e0bf
00000340: 1fa2 e73d 6793 df3f 9e77 39a1 10f1 ddbf
00000350: cd22 0702 1e8b e3bf fc19 8f7e 3424 dfbf
00000360: b3ce 41d3 933a e93f 02d6 4a12 18dc d5bf
00000370: b0b6 1ed7 390d e53f fbac e620 1a00 e03f
00000380: 1444 9304 4419 ba3f 9098 d023 b931 e33f
00000390: 54f2 e963 a328 ca3f 152f 3c3a 61f5 b23f
000003a0: 4cee 5ce4 1b49 be3f 902f c33a 11cf e0bf
000003b0: a137 4a4a ed4a d53f 6367 6fbc 236e a2bf
000003c0: b67a e768 98f1 f9bf d27d 3c94 21c2 c43f
000003d0: b150 a726 dc7b c33f 4171 6f40 a368 cabf
000003e0: 877d 40ce 96f5 bb3f 1cff b400 9608 f03f
000003f0: 6950 4549 1abb e0bf fa02 be9b 566f db3f
00000400: a4dc bdb3 8163 e7bf 5d23 ac3c aaf3 e33f
00000410: 13aa d018 9958 d4bf c870 8662 25a2 97bf
00000420: f8da e20b cd34 a1bf 1a4f c6c5 0f38 a83f
00000430: 423e af07 9061 c1bf 8527 9eb3 1787 d4bf
00000440: 584e b877 810c e0bf 0ca0 5737 67d8 903f
00000450: 27fa ddf3 c313 743f 49af aafa 3ba2 903f
00000460: 5c5b b0c4 559f 66bf fef9 4d5b 66cd 753f
00000470: 9b9d 6c71 dadd 80bf dd40 223e d522 71bf
00000480: b216 b7ca 36cb 8c3f c0e0 a9bd e78f 733f
00000490: 9570 aae9 9e90 c03f c3d3 fa25 7c9d 61bf
000004a0: 2ed3 3666 6c6a 92bf fc71 7039 555a bfbf
000004b0: c17c 60fe 1c99 babf 0bfc f391 54fe ee3f
000004c0: 9708 b432 0a47 d9bf f1c1 9ba1 c37e d63f
000004d0: c533 bc17 6829 af3f 0c0d 52c0 5aa2 bbbf
000004e0: f3b0 b032 43d0 db3f c6bd 80a9 fbe3 cbbf
000004f0: aae6 e49c 1c6a d1bf 63f9 a6ac d7f6 c8bf
00000500: 5ff2 2fc1 61f3 b53f defc 51e2 ffd1 b5bf
00000510: 77f4 34f8 a1ee cabf c2a5 f96f 46b8 cf3f
00000520: 5b44 ee14 04a5 babf e315 11b2 279e c23f
00000530: fc43 a102 accd d43f 2079 0df7 70e5 a4bf
00000540: 9c82 5d18 ce91 9d3f 4953 770e f5a3 abbf
00000550: b0cd f545 aa54 b5bf c191 057c c36a 8f3f
00000560: 49cf c3e6 4be6 bd3f c372 5706 2055 d73f
00000570: 75db bcdb d203 aebf 2135 704f 291c d83f
00000580: 45ec d4d1 766e 403f 9779 8f40 0862 cfbf
00000590: 4c77 dcf8 48ec 0c40 6b0d 7db2 6dd7 ed3f
000005a0: de1b 5119 c376 f3bf a129 ef23 3376 e1bf
000005b0: 3d11 65d2 063e f3bf 4114 e6ac fe5b f73f
000005c0: 7032 1816 92c9 f2bf feca dfc7 9932 e3bf
000005d0: baec 2d7f f1d1 d43f 18d2 ef0b 3330 adbf
000005e0: ee04 6482 f7b7 e5bf 0613 2ea1 a79a ddbf
000005f0: 6334 9f72 6e8e fcbf eded 472e de73 e4bf
00000600: c550 f1e0 ffb6 ff3f dfef 826d 0c1b c1bf
00000610: 56df fd7f 0ee5 d23f 3fba a10c 1b8e f83f
00000620: 9863 2553 0e1b ecbf cfa6 f5c6 dd7b 02c0
00000630: 2623 b335 dee2 f5bf 2108 f6d6 4e0d fc3f
00000640: d2b2 c194 15e6 debf a8ac c13c 0b65 e9bf
00000650: 5fa1 9222 9b82 0240 3983 a978 afa1 c53f
00000660: 5356 aa6c 02a4 86bf 8330 feed 3574 563f
00000670: 060b 2c0d c8cb 603f 037e 427d e88e 503f
00000680: 7508 cbb6 171d 6cbf be79 4a42 07bb 90bf
00000690: eea0 6dd4 13bd 623f 37dd 3ba8 b4af 69bf
000006a0: 761b 2c0c c94f b0bf 65ce c1e7 45ed d0bf
000006b0: 378e 97b1 45f4 d8bf a202 aecc a0c1 d03f
000006c0: acfd ba50 c7ba f0bf 21c2 4866 a9ed db3f
000006d0: 7bfa 5ce2 2d9b e9bf a725 8c7c 01fe c83f
000006e0: 0f01 2440 454b dc3f b8ab 3b72 e91a dcbf
000006f0: 7981 4565 9596 f23f adc8 7da1 3218 dd3f
00000700: b1a5 73fb ed77 e03f 71ff c56d bacd d43f
00000710: acdc 9ac3 856f d43f cd76 a8c9 ac0a b8bf
00000720: 6569 44dd 9572 bc3f 0cec 4493 c252 e63f
00000730: 087c 20a5 e88a d83f d009 4316 5516 d4bf
00000740: 3c0e c8af 6e69 cbbf 5b88 7f23 2774 d1bf
00000750: e4a6 fab5 8e10 c93f d613 4fb6 d914 babf
00000760: 2d94 2e72 77fd bcbf 1549 a9cf 0b2d b73f
00000770: bf53 f144 fe01 c4bf e2e7 dc8e d767 c53f
00000780: f02b 9636 fbeb db3f 1d9e 6193 c1b3 e33f
00000790: 52a2 0302 d3c6 c63f a10f 752d 4baa d2bf
000007a0: df7e 77c8 6dbf c63f ccca 1e86 4727 e6bf
000007b0: 70fc cc6a 6748 c2bf 726f 33a3 e82f ccbf
000007c0: 053f caf1 5e3c cbbf 20e7 1cac 0eb5 a33f
000007d0: 549a ccf6 a5be c9bf a269 23be 960a d13f
000007e0: d2ed 8586 7537 c6bf 745b 0da9 88d6 bb3f
000007f0: 6c72 15e7 6408 b03f dd3f ff39 ea5f cf3f

W_o f8 [128, 217]
0.4816527826941509 1.805943716516256 0.06405838344510055 -0.18131819367166851 0.5021278237241116 0.1488690997406818 0.5885430371338815 1.1998502984566406
0.595323264710417 0.8792725066504885 0.14344651217780163 0.5585430484677034 -0.8034814661172938 0.21115854159784322 -0.8682478488105974 0.41804806827075497
0.04141652196363378 0.22543172253682459 0.20937676505631203 0.7798649940903483 -0.27506632085388316 0.09542650279957982 1.7276915128356962 0.21833081977198793
0.20735220906081298 -0.4891444703409671 0.47467964076908076 -0.9606647124963189 0.7947165586866018 0.30512007578866096 0.4277180991671322 -0.2194684334552877
0.4784354625203073 -0.01635902399577304 -1.0380345344497877 0.3807166669202427 -0.3029887837610917 -0.18991885690328994 0.44045078724930153 -0.13262439065958492
-0.3933973557552421 -0.5870756838977953 -0.05927892093342626 -0.5191622663023006 -0.20362107736508034 -0.04369844288315438 0.9328666240662304 -0.014772145640252539
0.39296645459287827 -0.32226005117000445 -0.20593924243755546 -0.7250984130718183 0.015288991290324986 1.6707874189768592 -1.1195780896229783 -0.43580495195599656
-0.6578073967006035 0.536339791602403 -0.5951148295941966 -0.5759088554841784 0.1414363210167868 -0.10647509012127342 -0.8890229377861424 0.2849046796392482
-0.26593851435265153 0.4839790383603984 -0.4109415876097777 0.8573237686643359 -1.6317387574556648 -0.8185924370935128 -0.5237859010297394 -1.5125092646486582
1.2674107447396685 0.31380842006228693 0.6971469477853487 -0.27016315566033694 0.011721627453988994 0.7786395136635001 -0.500853791812607 0.0068266834411085265
1.259043482265782 -0.007358152461663046 -0.15386062040035708 -1.584809059381611 -0.32752766288017127 -0.49234226098514183 -0.18061930954347313 -0.20666239450178117
-0.0424923998479278 -0.22709424890924915 -0.18802998523471653 -0.10945940733825932 -0.32566938842898085 0.5946863025530443 0.1870454427260495 -0.2437763789843969
0.6924328946666294 0.504873676328672 -0.940699070199661 0.7867991753436584 0.6102148860490195 0.4416642822121308 0.09773577263057102 -0.30168161605164595
1.4518224758687146 -0.8407871661891387 -0.5473324170009288 0.5766143406532721 0.0007639654912046713 -0.7129606271965291 0.03609432872933405 -0.277129100113656
-0.9522958304526803 -0.2261951691179564 0.2794208532210911 1.0357618883384965 0.007120048248165382 0.28376563084530604 -0.41632677278837865 0.4037081213494832
0.030133249161180105 -0.6965016744013791 -0.44404211553461276 -0.5664685939592103 -1.4459055047641753 -0.7315915632787475 -0.2695942934966023 -0.510875061656034
1.1001226218934317 -0.24719939350509745 -0.02753707051870585 -0.01221334152432673 0.01720622447390722 -0.025397955937570677 0.3010442491085568 0.2651645825369066
-0.31117377333268037 -0.42199347181750463 0.005230167118287368 -0.032482492054937674 0.009036736654328848 -0.00913236739318052 -0.006083220028140754 -0.00028489795159216443
0.005852444957372963 -0.0035784668599168515 -0.036454753152986685 -0.01523858897193682 0.0063711341382306904 -0.048612886242286116 0.027387083886636267 -0.4081866349310867
-0.6198627436845776 -0.6471941201675775 0.3501939060468231 0.1915667293311223 -0.3330424939332504 0.4980450086491456 -0.6614483233191497 0.7869148158666937
-0.11899420202865715 0.40858885554063545 0.5733689538382553 0.12102289845278949 0.17796289770570317 -0.37299819925963834 -0.06558276642976445 0.04647610658032297
-0.16039752650556602 0.12549361003850387 0.09986055962766222 0.017495200568828403 -0.3306148067798579 -0.36924191731145056 0.3232052818432696 0.05683686067998784
-0.008159569576969566 -0.08480889818431997 -1.2297740278130749 -0.7704264503809916 0.6299563320289746 -1.1710908990179143 0.8506508231797758 0.17749101789612112
1.367560206083302 -1.2301511863408907 0.2717301777308961 0.14410867270418926 0.5198035603118745 -0.650326522370122 -0.6521655690561098 -0.42820128058368545
0.5073557927102421 -1.0475496554251875 0.07391332957059733 0.042272454768675645 -0.03349073737956373 -0.46982697238278626 2.0826520426363135 0.0479415083568656
0.8199384150071587 0.3691454416383479 0.07059946284017345 -0.26621710526862447 -0.00440035716872138 0.012937565992227984 0.0031769400477024406 0.009705321930275047
-0.001670151796668002 0.009472568170051068 -0.017151687465045105 -0.019460163711708375 0.04467945000278107 0.6390002871072451 0.2473203277436164 -0.301473362658347
-0.7473654273301737 0.8035726653586134 -0.05739464177456689 0.41919978001505503 0.26426149948664324 -0.10810075652614734 -0.7499408304416975 -0.6778907439805173
-0.4793713207802787 0.22817117294800618 0.16353509070919528 0.3385960633142957 -0.045991726357777624 0.6431879272358834 0.003764137127291723 0.11869521652425694
0.6088814027674906 -0.10882046893155703 -0.3175258196019307 -0.0012420517556457297 -0.5299403716135008 0.25986405086789394 0.16310179139555694 -0.31820481988328303
0.45281219767093084 1.2788507096659463 0.2835986257028974 0.6780186145087868 -1.2079994679571795 0.9007031433017985 -0.16487878741046372 -0.3106721466899744
0.467269757398054 0.6501402547201569 -0.9239181745982218 0.13889404604980526 -0.44832583400188203 0.6955136392604869 -0.765582405195316 -0.06629535272749043
00000000: b2b8 6c31 66d3 de3f 0baa 0d3d 25e5 fc3f
00000010: f36b ee55 2166 b03f 8eab fe3f 6f35 c7bf
00000020: 96d0 a95e 6e11 e03f 5eb6 6285 240e c33f
00000030: c1e9 1835 58d5 e23f 4979 ff39 9632 f33f
00000040: 8a55 0f60 e30c e33f ccbe 8a18 0023 ec3f
00000050: c6b3 438f 745c c23f 3476 d2ab 95df e13f
00000060: 204f 7dc3 1eb6 e9bf 8186 373b 3e07 cb3f
00000070: 02d8 6eb6 afc8 ebbf 5f3f 58af 4cc1 da3f
00000080: 621c b2de 8b34 a53f e267 e359 f2da cc3f
00000090: f6c4 3a9b dbcc ca3f 9539 9d6e a7f4 e83f
000000a0: 261a 13c5 af9a d1bf 1423 b20c df6d b83f
000000b0: 1a4c 13db 9fa4 fb3f 5e95 50a9 43f2 cb3f
000000c0: b4b3 5566 848a ca3f 788e c89b 244e dfbf
000000d0: e488 4bb7 2661 de3f 4df9 52ec c3bd eebf
000000e0: 7ec1 a46b 516e e93f bc61 b75a 1687 d33f
000000f0: a620 f5bb bb5f db3f a1ef 18a8 8a17 ccbf
00000100: db5d 31c6 af9e de3f 1ead 3984 6bc0 90bf
00000110: 6a49 9919 ca9b f0bf 79bb 5d70 a95d d83f
00000120: d1c1 5311 2b64 d3bf f98b a5d7 424f c8bf
00000130: d0ec ae7f 5830 dc3f ce75 4406 d6f9 c0bf
00000140: 1b4e 531a 6c2d d9bf 8cc5 d3f1 52c9 e2bf
00000150: f3a1 8085 ce59 aebf 6ebd 622f fa9c e0bf
00000160: 5697 0766 4110 cabf 9f77 236e a45f a6bf
00000170: d09e 3c1b 0bda ed3f 0444 55d3 db40 8ebf
00000180: deb1 b9c5 5c26 d93f f446 259f e89f d4bf
00000190: 88bc 9d93 375c cabf 76cc 5096 0134 e7bf
000001a0: 2f6d a5ac d54f 8f3f 882e b196 8bbb fa3f
000001b0: 49fb 03b7 cae9 f1bf ac7e 0574 3ae4 dbbf
000001c0: f4ab fc18 c20c e5bf 8f39 0f11 b229 e13f
000001d0: 1018 4f41 2e0b e3bf b500 7968 d86d e2bf
000001e0: 77e8 9dda 951a c23f 6fd6 e895 f341 bbbf
000001f0: 2dee 653b e072 ecbf 93c9 61d6 e03b d23f
00000200: c30d 79f9 2205 d1bf b546 6d37 83f9 de3f
00000210: 8c6b d6f1 dd4c dabf b9e5 8f41 326f eb3f
00000220: 4034 6e19 9a1b fabf f539 42c4 e831 eabf
00000230: 7cea 60a6 dac2 e0bf 0802 29ea 3c33 f8bf
00000240: 1618 347d 5047 f43f fe1f 58e9 6f15 d43f
00000250: 3ed1 a71d 074f e63f ab4c 8967 5a4a d1bf
00000260: 4ef4 9034 8201 883f c7db d169 9dea e83f
00000270: 2a35 fd87 fe06 e0bf b250 eae1 4bf6 7b3f
00000280: 042d 49c7 0a25 f43f fec0 e802 9523 7ebf
00000290: cc82 616e b4b1 c3bf 3a2d 87be 605b f9bf
000002a0: f3c2 2696 36f6 d4bf 21ac 571d 8982 dfbf
000002b0: eff5 c195 881e c7bf a15e d9d0 e973 cabf
000002c0: b8ce 5957 90c1 a5bf 6963 16a2 6c11 cdbf
000002d0: 6a0f a0d6 5d11 c8bf c0e2 c11e 8805 bcbf
000002e0: 3e17 276b c4d7 d4bf 0906 9b91 ab07 e33f
000002f0: 90e6 afe5 1af1 c73f 963c a37b 1034 cfbf
00000300: b491 a807 6928 e63f 872c 0ed7 ec27 e03f
00000310: 2b53 bcef 341a eebf 73dd d376 752d e93f
00000320: ec9c 635e e186 e33f 0765 fa43 3a44 dc3f
00000330: f3fb 182b 3605 b93f 87c2 af68 c04e d3bf
00000340: 1643 5734 aa3a f73f 49b9 b57c bae7 eabf
00000350: 70e8 e145 bf83 e1bf 4155 f0ea 9f73 e23f
00000360: 344a 6666 9b08 493f b7a1 24ce 92d0 e6bf
00000370: 2158 edb2 f47a a23f 1884 70b1 7bbc d1bf
00000380: 602a fd1a 3579 eebf d6f9 ef9a f6f3 ccbf
00000390: 90eb 9900 08e2 d13f 76b6 cd0e 7b92 f03f
000003a0: 91f1 f265 e929 7d3f c866 0d52 3729 d23f
000003b0: ddd1 640c 19a5 dabf 1ed7 9496 5ad6 d93f
000003c0: 428e ad1e 40db 9e3f a338 25e1 bd49 e6bf
000003d0: e323 119f 2f6b dcbf 5982 a8be 8220 e2bf
000003e0: 9918 81cf 6d22 f7bf bcf9 c9b5 3269 e7bf
000003f0: 7964 706c 0841 d1bf e4f2 44a8 1659 e0bf
00000400: f8f3 a92d 1a9a f13f cc03 59cf 3aa4 cfbf
00000410: afd1 3885 ad32 9cbf 3cf9 5ff3 4e03 89bf
00000420: 6bbd 9c2d 829e 913f e567 8cf8 eb01 9abf
00000430: fd7c 2419 4f44 d33f a76c 83de 74f8 d03f
00000440: ca8d f566 45ea d3bf 3f3a 25e8 f001 dbbf
00000450: 694c 9c4b 3a6c 753f 4d17 2392 8ba1 a0bf
00000460: 5aac 2443 da81 823f 2165 4f9a fdb3 82bf
00000470: 702b 34f1 b7ea 78bf 6e51 8162 cbab 32bf
00000480: 37cf 18bb bbf8 773f 67de 42c4 9650 6dbf
00000490: 48d3 2689 32aa a2bf 6859 2cca 6835 8fbf
000004a0: 2faf 314c 9e18 7a3f 824a 26c9 c9e3 a8bf
000004b0: e7ee 8016 5c0b 9c3f 2b5f ecd5 ba1f dabf
000004c0: 7a4a 8464 ead5 e3bf 4c10 8971 d0b5 e4bf
000004d0: ccb1 6eb3 9369 d63f 184b bd32 4285 c83f
000004e0: 1dc8 e776 9150 d5bf 2e62 052c f8df df3f
000004f0: 04cb 94ac 952a e5bf 7854 dcfa 672e e93f
00000500: 5e6f 206e 6776 bebf 7da7 03df 5126 da3f
00000510: 83dd 28d9 0959 e23f 02ff eb4e 5bfb be3f
00000520: d410 c6fc 7cc7 c63f d55e d2d6 33df d7bf
00000530: 573e ff3c 08ca b0bf c0a4 9d5b b7cb a73f
00000540: 83b0 59f9 e787 c4bf 0376 7cb3 2c10 c03f
00000550: 4cd5 c22d 7690 b93f eccc 1e09 43ea 913f
00000560: a257 ac01 cb28 d5bf a18f cad9 a8a1 d7bf
00000570: d452 da34 65af d43f c1dc a793 b819 ad3f
00000580: e333 dce3 f6b5 80bf dc87 1c34 09b6 b5bf
00000590: 6ed6 ee87 27ad f3bf df82 0b5f 55a7 e8bf
000005a0: 3d1f 7f2e 9a28 e43f 8acd 7ecf c9bc f2bf
000005b0: 78ec 3b13 8838 eb3f a94a 9992 06b8 c63f
000005c0: 5605 87cf 86e1 f53f 0184 a702 b3ae f3bf
000005d0: 9930 acf8 0664 d13f 9ccf 2a2a 2772 c23f
000005e0: 9e48 7c13 3ba2 e03f 80a2 2991 79cf e4bf
000005f0: 078b d553 8ade e4bf 7c95 0d58 a667 dbbf
00000600: 7a0d 2437 423c e03f c6cb 6f6d c3c2 f0bf
00000610: ed82 3ee5 fbeb b23f 7996 8135 bca4 a53f
00000620: cb3e 87ab b225 a1bf b26a 4a26 a511 debf
00000630: 8490 6079 45a9 0040 eefc 0615 ca8b a83f
00000640: 0613 a67c ef3c ea3f b377 d333 14a0 d73f
00000650: a582 0370 ce12 b23f 15ee 3078 b309 d1bf
00000660: b306 16e2 1b06 72bf 9397 9cb6 027f 8a3f
00000670: 3c46 66b3 8606 6a3f b42c 4d42 62e0 833f
00000680: b698 25d6 1f5d 5bbf cef9 fe93 5a66 833f
00000690: 1630 ef42 3690 91bf acca dd7a 5ded 93bf
000006a0: 7163 2191 39e0 a63f ca53 e8ba b072 e43f
000006b0: 1ebd a547 31a8 cf3f 58e5 4eee 564b d3bf
000006c0: c469 91e6 6aea e7bf ef97 b505 deb6 e93f
000006d0: 5259 c69a d462 adbf 6fec 6950 2bd4 da3f
000006e0: 7cc5 7810 a9e9 d03f 9ee1 f3bd 7dac bbbf
000006f0: 5ad4 95e9 83ff e7bf ac09 f5ed 47b1 e5bf
00000700: 5710 590c 05ae debf 8dcf d986 b634 cd3f
00000710: e114 2cc5 b7ee c43f cc4f 9fd2 8eab d53f
00000720: a4bc 2f41 3a8c a7bf ec1f 15d9 fe94 e43f
00000730: e804 80bb f7d5 6e3f 7ecf 2949 cf62 be3f
00000740: 5fed 00da f47b e33f ae48 3283 a8db bbbf
00000750: 5adb b4d0 5752 d4bf ea73 e8ea 8a59 54bf
00000760: 511f 9d82 45f5 e0bf 4b8e f8d3 9ca1 d03f
00000770: 5541 fbfd 84e0 c43f 6502 b5bf 775d d4bf
00000780: 8e7f 0e03 e0fa dc3f c2b4 6729 2c76 f43f
00000790: 4668 a5d9 7a26 d23f 809f ec17 54b2 e53f
000007a0: 3f62 0740 f753 f3bf 0c57 fc65 8fd2 ec3f
000007b0: bdb4 dd83 bf1a c5bf 83f0 736d 0de2 d3bf
000007c0: c8ce 9b69 bfe7 dd3f 04c2 7aef f2cd e43f
000007d0: 498a 02d9 bc90 edbf dc4e b2b4 47c7 c13f
000007e0: 4b5c bfd6 5eb1 dcbf a576 d1d1 a541 e63f
000007f0: f29e 16ac a67f e8bf 1863 d773 bbf8 b0bf
